{"class_name": "Model", "config": {"name": "model_6", "layers": [{"class_name": "InputLayer", "config": {"batch_input_shape": [null, 150, 150, 1], "dtype": "float32", "sparse": false, "ragged": false, "name": "input_7"}, "name": "input_7", "inbound_nodes": []}, {"class_name": "ZeroPadding2D", "config": {"name": "zero_padding2d_12", "trainable": true, "dtype": "float32", "padding": [[3, 3], [3, 3]], "data_format": "channels_last"}, "name": "zero_padding2d_12", "inbound_nodes": [[["input_7", 0, 0, {}]]]}, {"class_name": "Conv2D", "config": {"name": "conv2d_318", "trainable": true, "dtype": "float32", "filters": 64, "kernel_size": [7, 7], "strides": [2, 2], "padding": "valid", "data_format": "channels_last", "dilation_rate": [1, 1], "activation": "linear", "use_bias": true, "kernel_initializer": {"class_name": "VarianceScaling", "config": {"scale": 2.0, "mode": "fan_in", "distribution": "truncated_normal", "seed": null}}, "bias_initializer": {"class_name": "VarianceScaling", "config": {"scale": 2.0, "mode": "fan_in", "distribution": "truncated_normal", "seed": null}}, "kernel_regularizer": null, "bias_regularizer": null, "activity_regularizer": null, "kernel_constraint": null, "bias_constraint": null}, "name": "conv2d_318", "inbound_nodes": [[["zero_padding2d_12", 0, 0, {}]]]}, {"class_name": "BatchNormalization", "config": {"name": "batch_normalization_306", "trainable": true, "dtype": "float32", "axis": [3], "momentum": 0.99, "epsilon": 0.001, "center": true, "scale": true, "beta_initializer": {"class_name": "Zeros", "config": {}}, "gamma_initializer": {"class_name": "Ones", "config": {}}, "moving_mean_initializer": {"class_name": "Zeros", "config": {}}, "moving_variance_initializer": {"class_name": "Ones", "config": {}}, "beta_regularizer": null, "gamma_regularizer": null, "beta_constraint": null, "gamma_constraint": null}, "name": "batch_normalization_306", "inbound_nodes": [[["conv2d_318", 0, 0, {}]]]}, {"class_name": "ReLU", "config": {"name": "re_lu_402", "trainable": true, "dtype": "float32", "max_value": null, "negative_slope": 0.0, "threshold": 0.0}, "name": "re_lu_402", "inbound_nodes": [[["batch_normalization_306", 0, 0, {}]]]}, {"class_name": "ZeroPadding2D", "config": {"name": "zero_padding2d_13", "trainable": true, "dtype": "float32", "padding": [[1, 1], [1, 1]], "data_format": "channels_last"}, "name": "zero_padding2d_13", "inbound_nodes": [[["re_lu_402", 0, 0, {}]]]}, {"class_name": "MaxPooling2D", "config": {"name": "max_pooling2d_6", "trainable": true, "dtype": "float32", "pool_size": [3, 3], "padding": "valid", "strides": [2, 2], "data_format": "channels_last"}, "name": "max_pooling2d_6", "inbound_nodes": [[["zero_padding2d_13", 0, 0, {}]]]}, {"class_name": "BatchNormalization", "config": {"name": "batch_normalization_307", "trainable": true, "dtype": "float32", "axis": [3], "momentum": 0.99, "epsilon": 0.001, "center": true, "scale": true, "beta_initializer": {"class_name": "Zeros", "config": {}}, "gamma_initializer": {"class_name": "Ones", "config": {}}, "moving_mean_initializer": {"class_name": "Zeros", "config": {}}, "moving_variance_initializer": {"class_name": "Ones", "config": {}}, "beta_regularizer": null, "gamma_regularizer": null, "beta_constraint": null, "gamma_constraint": null}, "name": "batch_normalization_307", "inbound_nodes": [[["max_pooling2d_6", 0, 0, {}]]]}, {"class_name": "ReLU", "config": {"name": "re_lu_403", "trainable": true, "dtype": "float32", "max_value": null, "negative_slope": 0.0, "threshold": 0.0}, "name": "re_lu_403", "inbound_nodes": [[["batch_normalization_307", 0, 0, {}]]]}, {"class_name": "Conv2D", "config": {"name": "conv2d_319", "trainable": true, "dtype": "float32", "filters": 64, "kernel_size": [1, 1], "strides": [1, 1], "padding": "same", "data_format": "channels_last", "dilation_rate": [1, 1], "activation": "linear", "use_bias": true, "kernel_initializer": {"class_name": "VarianceScaling", "config": {"scale": 2.0, "mode": "fan_in", "distribution": "truncated_normal", "seed": null}}, "bias_initializer": {"class_name": "VarianceScaling", "config": {"scale": 2.0, "mode": "fan_in", "distribution": "truncated_normal", "seed": null}}, "kernel_regularizer": null, "bias_regularizer": null, "activity_regularizer": null, "kernel_constraint": null, "bias_constraint": null}, "name": "conv2d_319", "inbound_nodes": [[["re_lu_403", 0, 0, {}]]]}, {"class_name": "BatchNormalization", "config": {"name": "batch_normalization_308", "trainable": true, "dtype": "float32", "axis": [3], "momentum": 0.99, "epsilon": 0.001, "center": true, "scale": true, "beta_initializer": {"class_name": "Zeros", "config": {}}, "gamma_initializer": {"class_name": "Ones", "config": {}}, "moving_mean_initializer": {"class_name": "Zeros", "config": {}}, "moving_variance_initializer": {"class_name": "Ones", "config": {}}, "beta_regularizer": null, "gamma_regularizer": null, "beta_constraint": null, "gamma_constraint": null}, "name": "batch_normalization_308", "inbound_nodes": [[["conv2d_319", 0, 0, {}]]]}, {"class_name": "ReLU", "config": {"name": "re_lu_404", "trainable": true, "dtype": "float32", "max_value": null, "negative_slope": 0.0, "threshold": 0.0}, "name": "re_lu_404", "inbound_nodes": [[["batch_normalization_308", 0, 0, {}]]]}, {"class_name": "Conv2D", "config": {"name": "conv2d_320", "trainable": true, "dtype": "float32", "filters": 64, "kernel_size": [3, 3], "strides": [1, 1], "padding": "same", "data_format": "channels_last", "dilation_rate": [1, 1], "activation": "linear", "use_bias": true, "kernel_initializer": {"class_name": "VarianceScaling", "config": {"scale": 2.0, "mode": "fan_in", "distribution": "truncated_normal", "seed": null}}, "bias_initializer": {"class_name": "VarianceScaling", "config": {"scale": 2.0, "mode": "fan_in", "distribution": "truncated_normal", "seed": null}}, "kernel_regularizer": null, "bias_regularizer": null, "activity_regularizer": null, "kernel_constraint": null, "bias_constraint": null}, "name": "conv2d_320", "inbound_nodes": [[["re_lu_404", 0, 0, {}]]]}, {"class_name": "BatchNormalization", "config": {"name": "batch_normalization_309", "trainable": true, "dtype": "float32", "axis": [3], "momentum": 0.99, "epsilon": 0.001, "center": true, "scale": true, "beta_initializer": {"class_name": "Zeros", "config": {}}, "gamma_initializer": {"class_name": "Ones", "config": {}}, "moving_mean_initializer": {"class_name": "Zeros", "config": {}}, "moving_variance_initializer": {"class_name": "Ones", "config": {}}, "beta_regularizer": null, "gamma_regularizer": null, "beta_constraint": null, "gamma_constraint": null}, "name": "batch_normalization_309", "inbound_nodes": [[["conv2d_320", 0, 0, {}]]]}, {"class_name": "ReLU", "config": {"name": "re_lu_405", "trainable": true, "dtype": "float32", "max_value": null, "negative_slope": 0.0, "threshold": 0.0}, "name": "re_lu_405", "inbound_nodes": [[["batch_normalization_309", 0, 0, {}]]]}, {"class_name": "Conv2D", "config": {"name": "conv2d_321", "trainable": true, "dtype": "float32", "filters": 256, "kernel_size": [1, 1], "strides": [1, 1], "padding": "same", "data_format": "channels_last", "dilation_rate": [1, 1], "activation": "linear", "use_bias": true, "kernel_initializer": {"class_name": "VarianceScaling", "config": {"scale": 2.0, "mode": "fan_in", "distribution": "truncated_normal", "seed": null}}, "bias_initializer": {"class_name": "VarianceScaling", "config": {"scale": 2.0, "mode": "fan_in", "distribution": "truncated_normal", "seed": null}}, "kernel_regularizer": null, "bias_regularizer": null, "activity_regularizer": null, "kernel_constraint": null, "bias_constraint": null}, "name": "conv2d_321", "inbound_nodes": [[["re_lu_405", 0, 0, {}]]]}, {"class_name": "Conv2D", "config": {"name": "conv2d_322", "trainable": true, "dtype": "float32", "filters": 256, "kernel_size": [1, 1], "strides": [1, 1], "padding": "valid", "data_format": "channels_last", "dilation_rate": [1, 1], "activation": "linear", "use_bias": true, "kernel_initializer": {"class_name": "VarianceScaling", "config": {"scale": 2.0, "mode": "fan_in", "distribution": "truncated_normal", "seed": null}}, "bias_initializer": {"class_name": "VarianceScaling", "config": {"scale": 2.0, "mode": "fan_in", "distribution": "truncated_normal", "seed": null}}, "kernel_regularizer": null, "bias_regularizer": null, "activity_regularizer": null, "kernel_constraint": null, "bias_constraint": null}, "name": "conv2d_322", "inbound_nodes": [[["max_pooling2d_6", 0, 0, {}]]]}, {"class_name": "Add", "config": {"name": "add_96", "trainable": true, "dtype": "float32"}, "name": "add_96", "inbound_nodes": [[["conv2d_321", 0, 0, {}], ["conv2d_322", 0, 0, {}]]]}, {"class_name": "ReLU", "config": {"name": "re_lu_406", "trainable": true, "dtype": "float32", "max_value": null, "negative_slope": 0.0, "threshold": 0.0}, "name": "re_lu_406", "inbound_nodes": [[["add_96", 0, 0, {}]]]}, {"class_name": "BatchNormalization", "config": {"name": "batch_normalization_310", "trainable": true, "dtype": "float32", "axis": [3], "momentum": 0.99, "epsilon": 0.001, "center": true, "scale": true, "beta_initializer": {"class_name": "Zeros", "config": {}}, "gamma_initializer": {"class_name": "Ones", "config": {}}, "moving_mean_initializer": {"class_name": "Zeros", "config": {}}, "moving_variance_initializer": {"class_name": "Ones", "config": {}}, "beta_regularizer": null, "gamma_regularizer": null, "beta_constraint": null, "gamma_constraint": null}, "name": "batch_normalization_310", "inbound_nodes": [[["re_lu_406", 0, 0, {}]]]}, {"class_name": "ReLU", "config": {"name": "re_lu_407", "trainable": true, "dtype": "float32", "max_value": null, "negative_slope": 0.0, "threshold": 0.0}, "name": "re_lu_407", "inbound_nodes": [[["batch_normalization_310", 0, 0, {}]]]}, {"class_name": "Conv2D", "config": {"name": "conv2d_323", "trainable": true, "dtype": "float32", "filters": 64, "kernel_size": [1, 1], "strides": [1, 1], "padding": "same", "data_format": "channels_last", "dilation_rate": [1, 1], "activation": "linear", "use_bias": true, "kernel_initializer": {"class_name": "VarianceScaling", "config": {"scale": 2.0, "mode": "fan_in", "distribution": "truncated_normal", "seed": null}}, "bias_initializer": {"class_name": "VarianceScaling", "config": {"scale": 2.0, "mode": "fan_in", "distribution": "truncated_normal", "seed": null}}, "kernel_regularizer": null, "bias_regularizer": null, "activity_regularizer": null, "kernel_constraint": null, "bias_constraint": null}, "name": "conv2d_323", "inbound_nodes": [[["re_lu_407", 0, 0, {}]]]}, {"class_name": "BatchNormalization", "config": {"name": "batch_normalization_311", "trainable": true, "dtype": "float32", "axis": [3], "momentum": 0.99, "epsilon": 0.001, "center": true, "scale": true, "beta_initializer": {"class_name": "Zeros", "config": {}}, "gamma_initializer": {"class_name": "Ones", "config": {}}, "moving_mean_initializer": {"class_name": "Zeros", "config": {}}, "moving_variance_initializer": {"class_name": "Ones", "config": {}}, "beta_regularizer": null, "gamma_regularizer": null, "beta_constraint": null, "gamma_constraint": null}, "name": "batch_normalization_311", "inbound_nodes": [[["conv2d_323", 0, 0, {}]]]}, {"class_name": "ReLU", "config": {"name": "re_lu_408", "trainable": true, "dtype": "float32", "max_value": null, "negative_slope": 0.0, "threshold": 0.0}, "name": "re_lu_408", "inbound_nodes": [[["batch_normalization_311", 0, 0, {}]]]}, {"class_name": "Conv2D", "config": {"name": "conv2d_324", "trainable": true, "dtype": "float32", "filters": 64, "kernel_size": [3, 3], "strides": [1, 1], "padding": "same", "data_format": "channels_last", "dilation_rate": [1, 1], "activation": "linear", "use_bias": true, "kernel_initializer": {"class_name": "VarianceScaling", "config": {"scale": 2.0, "mode": "fan_in", "distribution": "truncated_normal", "seed": null}}, "bias_initializer": {"class_name": "VarianceScaling", "config": {"scale": 2.0, "mode": "fan_in", "distribution": "truncated_normal", "seed": null}}, "kernel_regularizer": null, "bias_regularizer": null, "activity_regularizer": null, "kernel_constraint": null, "bias_constraint": null}, "name": "conv2d_324", "inbound_nodes": [[["re_lu_408", 0, 0, {}]]]}, {"class_name": "BatchNormalization", "config": {"name": "batch_normalization_312", "trainable": true, "dtype": "float32", "axis": [3], "momentum": 0.99, "epsilon": 0.001, "center": true, "scale": true, "beta_initializer": {"class_name": "Zeros", "config": {}}, "gamma_initializer": {"class_name": "Ones", "config": {}}, "moving_mean_initializer": {"class_name": "Zeros", "config": {}}, "moving_variance_initializer": {"class_name": "Ones", "config": {}}, "beta_regularizer": null, "gamma_regularizer": null, "beta_constraint": null, "gamma_constraint": null}, "name": "batch_normalization_312", "inbound_nodes": [[["conv2d_324", 0, 0, {}]]]}, {"class_name": "ReLU", "config": {"name": "re_lu_409", "trainable": true, "dtype": "float32", "max_value": null, "negative_slope": 0.0, "threshold": 0.0}, "name": "re_lu_409", "inbound_nodes": [[["batch_normalization_312", 0, 0, {}]]]}, {"class_name": "Conv2D", "config": {"name": "conv2d_325", "trainable": true, "dtype": "float32", "filters": 256, "kernel_size": [1, 1], "strides": [1, 1], "padding": "same", "data_format": "channels_last", "dilation_rate": [1, 1], "activation": "linear", "use_bias": true, "kernel_initializer": {"class_name": "VarianceScaling", "config": {"scale": 2.0, "mode": "fan_in", "distribution": "truncated_normal", "seed": null}}, "bias_initializer": {"class_name": "VarianceScaling", "config": {"scale": 2.0, "mode": "fan_in", "distribution": "truncated_normal", "seed": null}}, "kernel_regularizer": null, "bias_regularizer": null, "activity_regularizer": null, "kernel_constraint": null, "bias_constraint": null}, "name": "conv2d_325", "inbound_nodes": [[["re_lu_409", 0, 0, {}]]]}, {"class_name": "Add", "config": {"name": "add_97", "trainable": true, "dtype": "float32"}, "name": "add_97", "inbound_nodes": [[["conv2d_325", 0, 0, {}], ["re_lu_406", 0, 0, {}]]]}, {"class_name": "ReLU", "config": {"name": "re_lu_410", "trainable": true, "dtype": "float32", "max_value": null, "negative_slope": 0.0, "threshold": 0.0}, "name": "re_lu_410", "inbound_nodes": [[["add_97", 0, 0, {}]]]}, {"class_name": "BatchNormalization", "config": {"name": "batch_normalization_313", "trainable": true, "dtype": "float32", "axis": [3], "momentum": 0.99, "epsilon": 0.001, "center": true, "scale": true, "beta_initializer": {"class_name": "Zeros", "config": {}}, "gamma_initializer": {"class_name": "Ones", "config": {}}, "moving_mean_initializer": {"class_name": "Zeros", "config": {}}, "moving_variance_initializer": {"class_name": "Ones", "config": {}}, "beta_regularizer": null, "gamma_regularizer": null, "beta_constraint": null, "gamma_constraint": null}, "name": "batch_normalization_313", "inbound_nodes": [[["re_lu_410", 0, 0, {}]]]}, {"class_name": "ReLU", "config": {"name": "re_lu_411", "trainable": true, "dtype": "float32", "max_value": null, "negative_slope": 0.0, "threshold": 0.0}, "name": "re_lu_411", "inbound_nodes": [[["batch_normalization_313", 0, 0, {}]]]}, {"class_name": "Conv2D", "config": {"name": "conv2d_326", "trainable": true, "dtype": "float32", "filters": 64, "kernel_size": [1, 1], "strides": [1, 1], "padding": "same", "data_format": "channels_last", "dilation_rate": [1, 1], "activation": "linear", "use_bias": true, "kernel_initializer": {"class_name": "VarianceScaling", "config": {"scale": 2.0, "mode": "fan_in", "distribution": "truncated_normal", "seed": null}}, "bias_initializer": {"class_name": "VarianceScaling", "config": {"scale": 2.0, "mode": "fan_in", "distribution": "truncated_normal", "seed": null}}, "kernel_regularizer": null, "bias_regularizer": null, "activity_regularizer": null, "kernel_constraint": null, "bias_constraint": null}, "name": "conv2d_326", "inbound_nodes": [[["re_lu_411", 0, 0, {}]]]}, {"class_name": "BatchNormalization", "config": {"name": "batch_normalization_314", "trainable": true, "dtype": "float32", "axis": [3], "momentum": 0.99, "epsilon": 0.001, "center": true, "scale": true, "beta_initializer": {"class_name": "Zeros", "config": {}}, "gamma_initializer": {"class_name": "Ones", "config": {}}, "moving_mean_initializer": {"class_name": "Zeros", "config": {}}, "moving_variance_initializer": {"class_name": "Ones", "config": {}}, "beta_regularizer": null, "gamma_regularizer": null, "beta_constraint": null, "gamma_constraint": null}, "name": "batch_normalization_314", "inbound_nodes": [[["conv2d_326", 0, 0, {}]]]}, {"class_name": "ReLU", "config": {"name": "re_lu_412", "trainable": true, "dtype": "float32", "max_value": null, "negative_slope": 0.0, "threshold": 0.0}, "name": "re_lu_412", "inbound_nodes": [[["batch_normalization_314", 0, 0, {}]]]}, {"class_name": "Conv2D", "config": {"name": "conv2d_327", "trainable": true, "dtype": "float32", "filters": 64, "kernel_size": [3, 3], "strides": [1, 1], "padding": "same", "data_format": "channels_last", "dilation_rate": [1, 1], "activation": "linear", "use_bias": true, "kernel_initializer": {"class_name": "VarianceScaling", "config": {"scale": 2.0, "mode": "fan_in", "distribution": "truncated_normal", "seed": null}}, "bias_initializer": {"class_name": "VarianceScaling", "config": {"scale": 2.0, "mode": "fan_in", "distribution": "truncated_normal", "seed": null}}, "kernel_regularizer": null, "bias_regularizer": null, "activity_regularizer": null, "kernel_constraint": null, "bias_constraint": null}, "name": "conv2d_327", "inbound_nodes": [[["re_lu_412", 0, 0, {}]]]}, {"class_name": "BatchNormalization", "config": {"name": "batch_normalization_315", "trainable": true, "dtype": "float32", "axis": [3], "momentum": 0.99, "epsilon": 0.001, "center": true, "scale": true, "beta_initializer": {"class_name": "Zeros", "config": {}}, "gamma_initializer": {"class_name": "Ones", "config": {}}, "moving_mean_initializer": {"class_name": "Zeros", "config": {}}, "moving_variance_initializer": {"class_name": "Ones", "config": {}}, "beta_regularizer": null, "gamma_regularizer": null, "beta_constraint": null, "gamma_constraint": null}, "name": "batch_normalization_315", "inbound_nodes": [[["conv2d_327", 0, 0, {}]]]}, {"class_name": "ReLU", "config": {"name": "re_lu_413", "trainable": true, "dtype": "float32", "max_value": null, "negative_slope": 0.0, "threshold": 0.0}, "name": "re_lu_413", "inbound_nodes": [[["batch_normalization_315", 0, 0, {}]]]}, {"class_name": "Conv2D", "config": {"name": "conv2d_328", "trainable": true, "dtype": "float32", "filters": 256, "kernel_size": [1, 1], "strides": [1, 1], "padding": "same", "data_format": "channels_last", "dilation_rate": [1, 1], "activation": "linear", "use_bias": true, "kernel_initializer": {"class_name": "VarianceScaling", "config": {"scale": 2.0, "mode": "fan_in", "distribution": "truncated_normal", "seed": null}}, "bias_initializer": {"class_name": "VarianceScaling", "config": {"scale": 2.0, "mode": "fan_in", "distribution": "truncated_normal", "seed": null}}, "kernel_regularizer": null, "bias_regularizer": null, "activity_regularizer": null, "kernel_constraint": null, "bias_constraint": null}, "name": "conv2d_328", "inbound_nodes": [[["re_lu_413", 0, 0, {}]]]}, {"class_name": "Add", "config": {"name": "add_98", "trainable": true, "dtype": "float32"}, "name": "add_98", "inbound_nodes": [[["conv2d_328", 0, 0, {}], ["re_lu_410", 0, 0, {}]]]}, {"class_name": "ReLU", "config": {"name": "re_lu_414", "trainable": true, "dtype": "float32", "max_value": null, "negative_slope": 0.0, "threshold": 0.0}, "name": "re_lu_414", "inbound_nodes": [[["add_98", 0, 0, {}]]]}, {"class_name": "BatchNormalization", "config": {"name": "batch_normalization_316", "trainable": true, "dtype": "float32", "axis": [3], "momentum": 0.99, "epsilon": 0.001, "center": true, "scale": true, "beta_initializer": {"class_name": "Zeros", "config": {}}, "gamma_initializer": {"class_name": "Ones", "config": {}}, "moving_mean_initializer": {"class_name": "Zeros", "config": {}}, "moving_variance_initializer": {"class_name": "Ones", "config": {}}, "beta_regularizer": null, "gamma_regularizer": null, "beta_constraint": null, "gamma_constraint": null}, "name": "batch_normalization_316", "inbound_nodes": [[["re_lu_414", 0, 0, {}]]]}, {"class_name": "ReLU", "config": {"name": "re_lu_415", "trainable": true, "dtype": "float32", "max_value": null, "negative_slope": 0.0, "threshold": 0.0}, "name": "re_lu_415", "inbound_nodes": [[["batch_normalization_316", 0, 0, {}]]]}, {"class_name": "Conv2D", "config": {"name": "conv2d_329", "trainable": true, "dtype": "float32", "filters": 128, "kernel_size": [1, 1], "strides": [1, 1], "padding": "same", "data_format": "channels_last", "dilation_rate": [1, 1], "activation": "linear", "use_bias": true, "kernel_initializer": {"class_name": "VarianceScaling", "config": {"scale": 2.0, "mode": "fan_in", "distribution": "truncated_normal", "seed": null}}, "bias_initializer": {"class_name": "VarianceScaling", "config": {"scale": 2.0, "mode": "fan_in", "distribution": "truncated_normal", "seed": null}}, "kernel_regularizer": null, "bias_regularizer": null, "activity_regularizer": null, "kernel_constraint": null, "bias_constraint": null}, "name": "conv2d_329", "inbound_nodes": [[["re_lu_415", 0, 0, {}]]]}, {"class_name": "BatchNormalization", "config": {"name": "batch_normalization_317", "trainable": true, "dtype": "float32", "axis": [3], "momentum": 0.99, "epsilon": 0.001, "center": true, "scale": true, "beta_initializer": {"class_name": "Zeros", "config": {}}, "gamma_initializer": {"class_name": "Ones", "config": {}}, "moving_mean_initializer": {"class_name": "Zeros", "config": {}}, "moving_variance_initializer": {"class_name": "Ones", "config": {}}, "beta_regularizer": null, "gamma_regularizer": null, "beta_constraint": null, "gamma_constraint": null}, "name": "batch_normalization_317", "inbound_nodes": [[["conv2d_329", 0, 0, {}]]]}, {"class_name": "ReLU", "config": {"name": "re_lu_416", "trainable": true, "dtype": "float32", "max_value": null, "negative_slope": 0.0, "threshold": 0.0}, "name": "re_lu_416", "inbound_nodes": [[["batch_normalization_317", 0, 0, {}]]]}, {"class_name": "Conv2D", "config": {"name": "conv2d_330", "trainable": true, "dtype": "float32", "filters": 128, "kernel_size": [3, 3], "strides": [2, 2], "padding": "same", "data_format": "channels_last", "dilation_rate": [1, 1], "activation": "linear", "use_bias": true, "kernel_initializer": {"class_name": "VarianceScaling", "config": {"scale": 2.0, "mode": "fan_in", "distribution": "truncated_normal", "seed": null}}, "bias_initializer": {"class_name": "VarianceScaling", "config": {"scale": 2.0, "mode": "fan_in", "distribution": "truncated_normal", "seed": null}}, "kernel_regularizer": null, "bias_regularizer": null, "activity_regularizer": null, "kernel_constraint": null, "bias_constraint": null}, "name": "conv2d_330", "inbound_nodes": [[["re_lu_416", 0, 0, {}]]]}, {"class_name": "BatchNormalization", "config": {"name": "batch_normalization_318", "trainable": true, "dtype": "float32", "axis": [3], "momentum": 0.99, "epsilon": 0.001, "center": true, "scale": true, "beta_initializer": {"class_name": "Zeros", "config": {}}, "gamma_initializer": {"class_name": "Ones", "config": {}}, "moving_mean_initializer": {"class_name": "Zeros", "config": {}}, "moving_variance_initializer": {"class_name": "Ones", "config": {}}, "beta_regularizer": null, "gamma_regularizer": null, "beta_constraint": null, "gamma_constraint": null}, "name": "batch_normalization_318", "inbound_nodes": [[["conv2d_330", 0, 0, {}]]]}, {"class_name": "ReLU", "config": {"name": "re_lu_417", "trainable": true, "dtype": "float32", "max_value": null, "negative_slope": 0.0, "threshold": 0.0}, "name": "re_lu_417", "inbound_nodes": [[["batch_normalization_318", 0, 0, {}]]]}, {"class_name": "Conv2D", "config": {"name": "conv2d_331", "trainable": true, "dtype": "float32", "filters": 512, "kernel_size": [1, 1], "strides": [1, 1], "padding": "same", "data_format": "channels_last", "dilation_rate": [1, 1], "activation": "linear", "use_bias": true, "kernel_initializer": {"class_name": "VarianceScaling", "config": {"scale": 2.0, "mode": "fan_in", "distribution": "truncated_normal", "seed": null}}, "bias_initializer": {"class_name": "VarianceScaling", "config": {"scale": 2.0, "mode": "fan_in", "distribution": "truncated_normal", "seed": null}}, "kernel_regularizer": null, "bias_regularizer": null, "activity_regularizer": null, "kernel_constraint": null, "bias_constraint": null}, "name": "conv2d_331", "inbound_nodes": [[["re_lu_417", 0, 0, {}]]]}, {"class_name": "Conv2D", "config": {"name": "conv2d_332", "trainable": true, "dtype": "float32", "filters": 512, "kernel_size": [1, 1], "strides": [2, 2], "padding": "valid", "data_format": "channels_last", "dilation_rate": [1, 1], "activation": "linear", "use_bias": true, "kernel_initializer": {"class_name": "VarianceScaling", "config": {"scale": 2.0, "mode": "fan_in", "distribution": "truncated_normal", "seed": null}}, "bias_initializer": {"class_name": "VarianceScaling", "config": {"scale": 2.0, "mode": "fan_in", "distribution": "truncated_normal", "seed": null}}, "kernel_regularizer": null, "bias_regularizer": null, "activity_regularizer": null, "kernel_constraint": null, "bias_constraint": null}, "name": "conv2d_332", "inbound_nodes": [[["re_lu_414", 0, 0, {}]]]}, {"class_name": "Add", "config": {"name": "add_99", "trainable": true, "dtype": "float32"}, "name": "add_99", "inbound_nodes": [[["conv2d_331", 0, 0, {}], ["conv2d_332", 0, 0, {}]]]}, {"class_name": "ReLU", "config": {"name": "re_lu_418", "trainable": true, "dtype": "float32", "max_value": null, "negative_slope": 0.0, "threshold": 0.0}, "name": "re_lu_418", "inbound_nodes": [[["add_99", 0, 0, {}]]]}, {"class_name": "BatchNormalization", "config": {"name": "batch_normalization_319", "trainable": true, "dtype": "float32", "axis": [3], "momentum": 0.99, "epsilon": 0.001, "center": true, "scale": true, "beta_initializer": {"class_name": "Zeros", "config": {}}, "gamma_initializer": {"class_name": "Ones", "config": {}}, "moving_mean_initializer": {"class_name": "Zeros", "config": {}}, "moving_variance_initializer": {"class_name": "Ones", "config": {}}, "beta_regularizer": null, "gamma_regularizer": null, "beta_constraint": null, "gamma_constraint": null}, "name": "batch_normalization_319", "inbound_nodes": [[["re_lu_418", 0, 0, {}]]]}, {"class_name": "ReLU", "config": {"name": "re_lu_419", "trainable": true, "dtype": "float32", "max_value": null, "negative_slope": 0.0, "threshold": 0.0}, "name": "re_lu_419", "inbound_nodes": [[["batch_normalization_319", 0, 0, {}]]]}, {"class_name": "Conv2D", "config": {"name": "conv2d_333", "trainable": true, "dtype": "float32", "filters": 128, "kernel_size": [1, 1], "strides": [1, 1], "padding": "same", "data_format": "channels_last", "dilation_rate": [1, 1], "activation": "linear", "use_bias": true, "kernel_initializer": {"class_name": "VarianceScaling", "config": {"scale": 2.0, "mode": "fan_in", "distribution": "truncated_normal", "seed": null}}, "bias_initializer": {"class_name": "VarianceScaling", "config": {"scale": 2.0, "mode": "fan_in", "distribution": "truncated_normal", "seed": null}}, "kernel_regularizer": null, "bias_regularizer": null, "activity_regularizer": null, "kernel_constraint": null, "bias_constraint": null}, "name": "conv2d_333", "inbound_nodes": [[["re_lu_419", 0, 0, {}]]]}, {"class_name": "BatchNormalization", "config": {"name": "batch_normalization_320", "trainable": true, "dtype": "float32", "axis": [3], "momentum": 0.99, "epsilon": 0.001, "center": true, "scale": true, "beta_initializer": {"class_name": "Zeros", "config": {}}, "gamma_initializer": {"class_name": "Ones", "config": {}}, "moving_mean_initializer": {"class_name": "Zeros", "config": {}}, "moving_variance_initializer": {"class_name": "Ones", "config": {}}, "beta_regularizer": null, "gamma_regularizer": null, "beta_constraint": null, "gamma_constraint": null}, "name": "batch_normalization_320", "inbound_nodes": [[["conv2d_333", 0, 0, {}]]]}, {"class_name": "ReLU", "config": {"name": "re_lu_420", "trainable": true, "dtype": "float32", "max_value": null, "negative_slope": 0.0, "threshold": 0.0}, "name": "re_lu_420", "inbound_nodes": [[["batch_normalization_320", 0, 0, {}]]]}, {"class_name": "Conv2D", "config": {"name": "conv2d_334", "trainable": true, "dtype": "float32", "filters": 128, "kernel_size": [3, 3], "strides": [1, 1], "padding": "same", "data_format": "channels_last", "dilation_rate": [1, 1], "activation": "linear", "use_bias": true, "kernel_initializer": {"class_name": "VarianceScaling", "config": {"scale": 2.0, "mode": "fan_in", "distribution": "truncated_normal", "seed": null}}, "bias_initializer": {"class_name": "VarianceScaling", "config": {"scale": 2.0, "mode": "fan_in", "distribution": "truncated_normal", "seed": null}}, "kernel_regularizer": null, "bias_regularizer": null, "activity_regularizer": null, "kernel_constraint": null, "bias_constraint": null}, "name": "conv2d_334", "inbound_nodes": [[["re_lu_420", 0, 0, {}]]]}, {"class_name": "BatchNormalization", "config": {"name": "batch_normalization_321", "trainable": true, "dtype": "float32", "axis": [3], "momentum": 0.99, "epsilon": 0.001, "center": true, "scale": true, "beta_initializer": {"class_name": "Zeros", "config": {}}, "gamma_initializer": {"class_name": "Ones", "config": {}}, "moving_mean_initializer": {"class_name": "Zeros", "config": {}}, "moving_variance_initializer": {"class_name": "Ones", "config": {}}, "beta_regularizer": null, "gamma_regularizer": null, "beta_constraint": null, "gamma_constraint": null}, "name": "batch_normalization_321", "inbound_nodes": [[["conv2d_334", 0, 0, {}]]]}, {"class_name": "ReLU", "config": {"name": "re_lu_421", "trainable": true, "dtype": "float32", "max_value": null, "negative_slope": 0.0, "threshold": 0.0}, "name": "re_lu_421", "inbound_nodes": [[["batch_normalization_321", 0, 0, {}]]]}, {"class_name": "Conv2D", "config": {"name": "conv2d_335", "trainable": true, "dtype": "float32", "filters": 512, "kernel_size": [1, 1], "strides": [1, 1], "padding": "same", "data_format": "channels_last", "dilation_rate": [1, 1], "activation": "linear", "use_bias": true, "kernel_initializer": {"class_name": "VarianceScaling", "config": {"scale": 2.0, "mode": "fan_in", "distribution": "truncated_normal", "seed": null}}, "bias_initializer": {"class_name": "VarianceScaling", "config": {"scale": 2.0, "mode": "fan_in", "distribution": "truncated_normal", "seed": null}}, "kernel_regularizer": null, "bias_regularizer": null, "activity_regularizer": null, "kernel_constraint": null, "bias_constraint": null}, "name": "conv2d_335", "inbound_nodes": [[["re_lu_421", 0, 0, {}]]]}, {"class_name": "Add", "config": {"name": "add_100", "trainable": true, "dtype": "float32"}, "name": "add_100", "inbound_nodes": [[["conv2d_335", 0, 0, {}], ["re_lu_418", 0, 0, {}]]]}, {"class_name": "ReLU", "config": {"name": "re_lu_422", "trainable": true, "dtype": "float32", "max_value": null, "negative_slope": 0.0, "threshold": 0.0}, "name": "re_lu_422", "inbound_nodes": [[["add_100", 0, 0, {}]]]}, {"class_name": "BatchNormalization", "config": {"name": "batch_normalization_322", "trainable": true, "dtype": "float32", "axis": [3], "momentum": 0.99, "epsilon": 0.001, "center": true, "scale": true, "beta_initializer": {"class_name": "Zeros", "config": {}}, "gamma_initializer": {"class_name": "Ones", "config": {}}, "moving_mean_initializer": {"class_name": "Zeros", "config": {}}, "moving_variance_initializer": {"class_name": "Ones", "config": {}}, "beta_regularizer": null, "gamma_regularizer": null, "beta_constraint": null, "gamma_constraint": null}, "name": "batch_normalization_322", "inbound_nodes": [[["re_lu_422", 0, 0, {}]]]}, {"class_name": "ReLU", "config": {"name": "re_lu_423", "trainable": true, "dtype": "float32", "max_value": null, "negative_slope": 0.0, "threshold": 0.0}, "name": "re_lu_423", "inbound_nodes": [[["batch_normalization_322", 0, 0, {}]]]}, {"class_name": "Conv2D", "config": {"name": "conv2d_336", "trainable": true, "dtype": "float32", "filters": 128, "kernel_size": [1, 1], "strides": [1, 1], "padding": "same", "data_format": "channels_last", "dilation_rate": [1, 1], "activation": "linear", "use_bias": true, "kernel_initializer": {"class_name": "VarianceScaling", "config": {"scale": 2.0, "mode": "fan_in", "distribution": "truncated_normal", "seed": null}}, "bias_initializer": {"class_name": "VarianceScaling", "config": {"scale": 2.0, "mode": "fan_in", "distribution": "truncated_normal", "seed": null}}, "kernel_regularizer": null, "bias_regularizer": null, "activity_regularizer": null, "kernel_constraint": null, "bias_constraint": null}, "name": "conv2d_336", "inbound_nodes": [[["re_lu_423", 0, 0, {}]]]}, {"class_name": "BatchNormalization", "config": {"name": "batch_normalization_323", "trainable": true, "dtype": "float32", "axis": [3], "momentum": 0.99, "epsilon": 0.001, "center": true, "scale": true, "beta_initializer": {"class_name": "Zeros", "config": {}}, "gamma_initializer": {"class_name": "Ones", "config": {}}, "moving_mean_initializer": {"class_name": "Zeros", "config": {}}, "moving_variance_initializer": {"class_name": "Ones", "config": {}}, "beta_regularizer": null, "gamma_regularizer": null, "beta_constraint": null, "gamma_constraint": null}, "name": "batch_normalization_323", "inbound_nodes": [[["conv2d_336", 0, 0, {}]]]}, {"class_name": "ReLU", "config": {"name": "re_lu_424", "trainable": true, "dtype": "float32", "max_value": null, "negative_slope": 0.0, "threshold": 0.0}, "name": "re_lu_424", "inbound_nodes": [[["batch_normalization_323", 0, 0, {}]]]}, {"class_name": "Conv2D", "config": {"name": "conv2d_337", "trainable": true, "dtype": "float32", "filters": 128, "kernel_size": [3, 3], "strides": [1, 1], "padding": "same", "data_format": "channels_last", "dilation_rate": [1, 1], "activation": "linear", "use_bias": true, "kernel_initializer": {"class_name": "VarianceScaling", "config": {"scale": 2.0, "mode": "fan_in", "distribution": "truncated_normal", "seed": null}}, "bias_initializer": {"class_name": "VarianceScaling", "config": {"scale": 2.0, "mode": "fan_in", "distribution": "truncated_normal", "seed": null}}, "kernel_regularizer": null, "bias_regularizer": null, "activity_regularizer": null, "kernel_constraint": null, "bias_constraint": null}, "name": "conv2d_337", "inbound_nodes": [[["re_lu_424", 0, 0, {}]]]}, {"class_name": "BatchNormalization", "config": {"name": "batch_normalization_324", "trainable": true, "dtype": "float32", "axis": [3], "momentum": 0.99, "epsilon": 0.001, "center": true, "scale": true, "beta_initializer": {"class_name": "Zeros", "config": {}}, "gamma_initializer": {"class_name": "Ones", "config": {}}, "moving_mean_initializer": {"class_name": "Zeros", "config": {}}, "moving_variance_initializer": {"class_name": "Ones", "config": {}}, "beta_regularizer": null, "gamma_regularizer": null, "beta_constraint": null, "gamma_constraint": null}, "name": "batch_normalization_324", "inbound_nodes": [[["conv2d_337", 0, 0, {}]]]}, {"class_name": "ReLU", "config": {"name": "re_lu_425", "trainable": true, "dtype": "float32", "max_value": null, "negative_slope": 0.0, "threshold": 0.0}, "name": "re_lu_425", "inbound_nodes": [[["batch_normalization_324", 0, 0, {}]]]}, {"class_name": "Conv2D", "config": {"name": "conv2d_338", "trainable": true, "dtype": "float32", "filters": 512, "kernel_size": [1, 1], "strides": [1, 1], "padding": "same", "data_format": "channels_last", "dilation_rate": [1, 1], "activation": "linear", "use_bias": true, "kernel_initializer": {"class_name": "VarianceScaling", "config": {"scale": 2.0, "mode": "fan_in", "distribution": "truncated_normal", "seed": null}}, "bias_initializer": {"class_name": "VarianceScaling", "config": {"scale": 2.0, "mode": "fan_in", "distribution": "truncated_normal", "seed": null}}, "kernel_regularizer": null, "bias_regularizer": null, "activity_regularizer": null, "kernel_constraint": null, "bias_constraint": null}, "name": "conv2d_338", "inbound_nodes": [[["re_lu_425", 0, 0, {}]]]}, {"class_name": "Add", "config": {"name": "add_101", "trainable": true, "dtype": "float32"}, "name": "add_101", "inbound_nodes": [[["conv2d_338", 0, 0, {}], ["re_lu_422", 0, 0, {}]]]}, {"class_name": "ReLU", "config": {"name": "re_lu_426", "trainable": true, "dtype": "float32", "max_value": null, "negative_slope": 0.0, "threshold": 0.0}, "name": "re_lu_426", "inbound_nodes": [[["add_101", 0, 0, {}]]]}, {"class_name": "BatchNormalization", "config": {"name": "batch_normalization_325", "trainable": true, "dtype": "float32", "axis": [3], "momentum": 0.99, "epsilon": 0.001, "center": true, "scale": true, "beta_initializer": {"class_name": "Zeros", "config": {}}, "gamma_initializer": {"class_name": "Ones", "config": {}}, "moving_mean_initializer": {"class_name": "Zeros", "config": {}}, "moving_variance_initializer": {"class_name": "Ones", "config": {}}, "beta_regularizer": null, "gamma_regularizer": null, "beta_constraint": null, "gamma_constraint": null}, "name": "batch_normalization_325", "inbound_nodes": [[["re_lu_426", 0, 0, {}]]]}, {"class_name": "ReLU", "config": {"name": "re_lu_427", "trainable": true, "dtype": "float32", "max_value": null, "negative_slope": 0.0, "threshold": 0.0}, "name": "re_lu_427", "inbound_nodes": [[["batch_normalization_325", 0, 0, {}]]]}, {"class_name": "Conv2D", "config": {"name": "conv2d_339", "trainable": true, "dtype": "float32", "filters": 128, "kernel_size": [1, 1], "strides": [1, 1], "padding": "same", "data_format": "channels_last", "dilation_rate": [1, 1], "activation": "linear", "use_bias": true, "kernel_initializer": {"class_name": "VarianceScaling", "config": {"scale": 2.0, "mode": "fan_in", "distribution": "truncated_normal", "seed": null}}, "bias_initializer": {"class_name": "VarianceScaling", "config": {"scale": 2.0, "mode": "fan_in", "distribution": "truncated_normal", "seed": null}}, "kernel_regularizer": null, "bias_regularizer": null, "activity_regularizer": null, "kernel_constraint": null, "bias_constraint": null}, "name": "conv2d_339", "inbound_nodes": [[["re_lu_427", 0, 0, {}]]]}, {"class_name": "BatchNormalization", "config": {"name": "batch_normalization_326", "trainable": true, "dtype": "float32", "axis": [3], "momentum": 0.99, "epsilon": 0.001, "center": true, "scale": true, "beta_initializer": {"class_name": "Zeros", "config": {}}, "gamma_initializer": {"class_name": "Ones", "config": {}}, "moving_mean_initializer": {"class_name": "Zeros", "config": {}}, "moving_variance_initializer": {"class_name": "Ones", "config": {}}, "beta_regularizer": null, "gamma_regularizer": null, "beta_constraint": null, "gamma_constraint": null}, "name": "batch_normalization_326", "inbound_nodes": [[["conv2d_339", 0, 0, {}]]]}, {"class_name": "ReLU", "config": {"name": "re_lu_428", "trainable": true, "dtype": "float32", "max_value": null, "negative_slope": 0.0, "threshold": 0.0}, "name": "re_lu_428", "inbound_nodes": [[["batch_normalization_326", 0, 0, {}]]]}, {"class_name": "Conv2D", "config": {"name": "conv2d_340", "trainable": true, "dtype": "float32", "filters": 128, "kernel_size": [3, 3], "strides": [1, 1], "padding": "same", "data_format": "channels_last", "dilation_rate": [1, 1], "activation": "linear", "use_bias": true, "kernel_initializer": {"class_name": "VarianceScaling", "config": {"scale": 2.0, "mode": "fan_in", "distribution": "truncated_normal", "seed": null}}, "bias_initializer": {"class_name": "VarianceScaling", "config": {"scale": 2.0, "mode": "fan_in", "distribution": "truncated_normal", "seed": null}}, "kernel_regularizer": null, "bias_regularizer": null, "activity_regularizer": null, "kernel_constraint": null, "bias_constraint": null}, "name": "conv2d_340", "inbound_nodes": [[["re_lu_428", 0, 0, {}]]]}, {"class_name": "BatchNormalization", "config": {"name": "batch_normalization_327", "trainable": true, "dtype": "float32", "axis": [3], "momentum": 0.99, "epsilon": 0.001, "center": true, "scale": true, "beta_initializer": {"class_name": "Zeros", "config": {}}, "gamma_initializer": {"class_name": "Ones", "config": {}}, "moving_mean_initializer": {"class_name": "Zeros", "config": {}}, "moving_variance_initializer": {"class_name": "Ones", "config": {}}, "beta_regularizer": null, "gamma_regularizer": null, "beta_constraint": null, "gamma_constraint": null}, "name": "batch_normalization_327", "inbound_nodes": [[["conv2d_340", 0, 0, {}]]]}, {"class_name": "ReLU", "config": {"name": "re_lu_429", "trainable": true, "dtype": "float32", "max_value": null, "negative_slope": 0.0, "threshold": 0.0}, "name": "re_lu_429", "inbound_nodes": [[["batch_normalization_327", 0, 0, {}]]]}, {"class_name": "Conv2D", "config": {"name": "conv2d_341", "trainable": true, "dtype": "float32", "filters": 512, "kernel_size": [1, 1], "strides": [1, 1], "padding": "same", "data_format": "channels_last", "dilation_rate": [1, 1], "activation": "linear", "use_bias": true, "kernel_initializer": {"class_name": "VarianceScaling", "config": {"scale": 2.0, "mode": "fan_in", "distribution": "truncated_normal", "seed": null}}, "bias_initializer": {"class_name": "VarianceScaling", "config": {"scale": 2.0, "mode": "fan_in", "distribution": "truncated_normal", "seed": null}}, "kernel_regularizer": null, "bias_regularizer": null, "activity_regularizer": null, "kernel_constraint": null, "bias_constraint": null}, "name": "conv2d_341", "inbound_nodes": [[["re_lu_429", 0, 0, {}]]]}, {"class_name": "Add", "config": {"name": "add_102", "trainable": true, "dtype": "float32"}, "name": "add_102", "inbound_nodes": [[["conv2d_341", 0, 0, {}], ["re_lu_426", 0, 0, {}]]]}, {"class_name": "ReLU", "config": {"name": "re_lu_430", "trainable": true, "dtype": "float32", "max_value": null, "negative_slope": 0.0, "threshold": 0.0}, "name": "re_lu_430", "inbound_nodes": [[["add_102", 0, 0, {}]]]}, {"class_name": "BatchNormalization", "config": {"name": "batch_normalization_328", "trainable": true, "dtype": "float32", "axis": [3], "momentum": 0.99, "epsilon": 0.001, "center": true, "scale": true, "beta_initializer": {"class_name": "Zeros", "config": {}}, "gamma_initializer": {"class_name": "Ones", "config": {}}, "moving_mean_initializer": {"class_name": "Zeros", "config": {}}, "moving_variance_initializer": {"class_name": "Ones", "config": {}}, "beta_regularizer": null, "gamma_regularizer": null, "beta_constraint": null, "gamma_constraint": null}, "name": "batch_normalization_328", "inbound_nodes": [[["re_lu_430", 0, 0, {}]]]}, {"class_name": "ReLU", "config": {"name": "re_lu_431", "trainable": true, "dtype": "float32", "max_value": null, "negative_slope": 0.0, "threshold": 0.0}, "name": "re_lu_431", "inbound_nodes": [[["batch_normalization_328", 0, 0, {}]]]}, {"class_name": "Conv2D", "config": {"name": "conv2d_342", "trainable": true, "dtype": "float32", "filters": 256, "kernel_size": [1, 1], "strides": [1, 1], "padding": "same", "data_format": "channels_last", "dilation_rate": [1, 1], "activation": "linear", "use_bias": true, "kernel_initializer": {"class_name": "VarianceScaling", "config": {"scale": 2.0, "mode": "fan_in", "distribution": "truncated_normal", "seed": null}}, "bias_initializer": {"class_name": "VarianceScaling", "config": {"scale": 2.0, "mode": "fan_in", "distribution": "truncated_normal", "seed": null}}, "kernel_regularizer": null, "bias_regularizer": null, "activity_regularizer": null, "kernel_constraint": null, "bias_constraint": null}, "name": "conv2d_342", "inbound_nodes": [[["re_lu_431", 0, 0, {}]]]}, {"class_name": "BatchNormalization", "config": {"name": "batch_normalization_329", "trainable": true, "dtype": "float32", "axis": [3], "momentum": 0.99, "epsilon": 0.001, "center": true, "scale": true, "beta_initializer": {"class_name": "Zeros", "config": {}}, "gamma_initializer": {"class_name": "Ones", "config": {}}, "moving_mean_initializer": {"class_name": "Zeros", "config": {}}, "moving_variance_initializer": {"class_name": "Ones", "config": {}}, "beta_regularizer": null, "gamma_regularizer": null, "beta_constraint": null, "gamma_constraint": null}, "name": "batch_normalization_329", "inbound_nodes": [[["conv2d_342", 0, 0, {}]]]}, {"class_name": "ReLU", "config": {"name": "re_lu_432", "trainable": true, "dtype": "float32", "max_value": null, "negative_slope": 0.0, "threshold": 0.0}, "name": "re_lu_432", "inbound_nodes": [[["batch_normalization_329", 0, 0, {}]]]}, {"class_name": "Conv2D", "config": {"name": "conv2d_343", "trainable": true, "dtype": "float32", "filters": 256, "kernel_size": [3, 3], "strides": [2, 2], "padding": "same", "data_format": "channels_last", "dilation_rate": [1, 1], "activation": "linear", "use_bias": true, "kernel_initializer": {"class_name": "VarianceScaling", "config": {"scale": 2.0, "mode": "fan_in", "distribution": "truncated_normal", "seed": null}}, "bias_initializer": {"class_name": "VarianceScaling", "config": {"scale": 2.0, "mode": "fan_in", "distribution": "truncated_normal", "seed": null}}, "kernel_regularizer": null, "bias_regularizer": null, "activity_regularizer": null, "kernel_constraint": null, "bias_constraint": null}, "name": "conv2d_343", "inbound_nodes": [[["re_lu_432", 0, 0, {}]]]}, {"class_name": "BatchNormalization", "config": {"name": "batch_normalization_330", "trainable": true, "dtype": "float32", "axis": [3], "momentum": 0.99, "epsilon": 0.001, "center": true, "scale": true, "beta_initializer": {"class_name": "Zeros", "config": {}}, "gamma_initializer": {"class_name": "Ones", "config": {}}, "moving_mean_initializer": {"class_name": "Zeros", "config": {}}, "moving_variance_initializer": {"class_name": "Ones", "config": {}}, "beta_regularizer": null, "gamma_regularizer": null, "beta_constraint": null, "gamma_constraint": null}, "name": "batch_normalization_330", "inbound_nodes": [[["conv2d_343", 0, 0, {}]]]}, {"class_name": "ReLU", "config": {"name": "re_lu_433", "trainable": true, "dtype": "float32", "max_value": null, "negative_slope": 0.0, "threshold": 0.0}, "name": "re_lu_433", "inbound_nodes": [[["batch_normalization_330", 0, 0, {}]]]}, {"class_name": "Conv2D", "config": {"name": "conv2d_344", "trainable": true, "dtype": "float32", "filters": 1024, "kernel_size": [1, 1], "strides": [1, 1], "padding": "same", "data_format": "channels_last", "dilation_rate": [1, 1], "activation": "linear", "use_bias": true, "kernel_initializer": {"class_name": "VarianceScaling", "config": {"scale": 2.0, "mode": "fan_in", "distribution": "truncated_normal", "seed": null}}, "bias_initializer": {"class_name": "VarianceScaling", "config": {"scale": 2.0, "mode": "fan_in", "distribution": "truncated_normal", "seed": null}}, "kernel_regularizer": null, "bias_regularizer": null, "activity_regularizer": null, "kernel_constraint": null, "bias_constraint": null}, "name": "conv2d_344", "inbound_nodes": [[["re_lu_433", 0, 0, {}]]]}, {"class_name": "Conv2D", "config": {"name": "conv2d_345", "trainable": true, "dtype": "float32", "filters": 1024, "kernel_size": [1, 1], "strides": [2, 2], "padding": "valid", "data_format": "channels_last", "dilation_rate": [1, 1], "activation": "linear", "use_bias": true, "kernel_initializer": {"class_name": "VarianceScaling", "config": {"scale": 2.0, "mode": "fan_in", "distribution": "truncated_normal", "seed": null}}, "bias_initializer": {"class_name": "VarianceScaling", "config": {"scale": 2.0, "mode": "fan_in", "distribution": "truncated_normal", "seed": null}}, "kernel_regularizer": null, "bias_regularizer": null, "activity_regularizer": null, "kernel_constraint": null, "bias_constraint": null}, "name": "conv2d_345", "inbound_nodes": [[["re_lu_430", 0, 0, {}]]]}, {"class_name": "Add", "config": {"name": "add_103", "trainable": true, "dtype": "float32"}, "name": "add_103", "inbound_nodes": [[["conv2d_344", 0, 0, {}], ["conv2d_345", 0, 0, {}]]]}, {"class_name": "ReLU", "config": {"name": "re_lu_434", "trainable": true, "dtype": "float32", "max_value": null, "negative_slope": 0.0, "threshold": 0.0}, "name": "re_lu_434", "inbound_nodes": [[["add_103", 0, 0, {}]]]}, {"class_name": "BatchNormalization", "config": {"name": "batch_normalization_331", "trainable": true, "dtype": "float32", "axis": [3], "momentum": 0.99, "epsilon": 0.001, "center": true, "scale": true, "beta_initializer": {"class_name": "Zeros", "config": {}}, "gamma_initializer": {"class_name": "Ones", "config": {}}, "moving_mean_initializer": {"class_name": "Zeros", "config": {}}, "moving_variance_initializer": {"class_name": "Ones", "config": {}}, "beta_regularizer": null, "gamma_regularizer": null, "beta_constraint": null, "gamma_constraint": null}, "name": "batch_normalization_331", "inbound_nodes": [[["re_lu_434", 0, 0, {}]]]}, {"class_name": "ReLU", "config": {"name": "re_lu_435", "trainable": true, "dtype": "float32", "max_value": null, "negative_slope": 0.0, "threshold": 0.0}, "name": "re_lu_435", "inbound_nodes": [[["batch_normalization_331", 0, 0, {}]]]}, {"class_name": "Conv2D", "config": {"name": "conv2d_346", "trainable": true, "dtype": "float32", "filters": 256, "kernel_size": [1, 1], "strides": [1, 1], "padding": "same", "data_format": "channels_last", "dilation_rate": [1, 1], "activation": "linear", "use_bias": true, "kernel_initializer": {"class_name": "VarianceScaling", "config": {"scale": 2.0, "mode": "fan_in", "distribution": "truncated_normal", "seed": null}}, "bias_initializer": {"class_name": "VarianceScaling", "config": {"scale": 2.0, "mode": "fan_in", "distribution": "truncated_normal", "seed": null}}, "kernel_regularizer": null, "bias_regularizer": null, "activity_regularizer": null, "kernel_constraint": null, "bias_constraint": null}, "name": "conv2d_346", "inbound_nodes": [[["re_lu_435", 0, 0, {}]]]}, {"class_name": "BatchNormalization", "config": {"name": "batch_normalization_332", "trainable": true, "dtype": "float32", "axis": [3], "momentum": 0.99, "epsilon": 0.001, "center": true, "scale": true, "beta_initializer": {"class_name": "Zeros", "config": {}}, "gamma_initializer": {"class_name": "Ones", "config": {}}, "moving_mean_initializer": {"class_name": "Zeros", "config": {}}, "moving_variance_initializer": {"class_name": "Ones", "config": {}}, "beta_regularizer": null, "gamma_regularizer": null, "beta_constraint": null, "gamma_constraint": null}, "name": "batch_normalization_332", "inbound_nodes": [[["conv2d_346", 0, 0, {}]]]}, {"class_name": "ReLU", "config": {"name": "re_lu_436", "trainable": true, "dtype": "float32", "max_value": null, "negative_slope": 0.0, "threshold": 0.0}, "name": "re_lu_436", "inbound_nodes": [[["batch_normalization_332", 0, 0, {}]]]}, {"class_name": "Conv2D", "config": {"name": "conv2d_347", "trainable": true, "dtype": "float32", "filters": 256, "kernel_size": [3, 3], "strides": [1, 1], "padding": "same", "data_format": "channels_last", "dilation_rate": [1, 1], "activation": "linear", "use_bias": true, "kernel_initializer": {"class_name": "VarianceScaling", "config": {"scale": 2.0, "mode": "fan_in", "distribution": "truncated_normal", "seed": null}}, "bias_initializer": {"class_name": "VarianceScaling", "config": {"scale": 2.0, "mode": "fan_in", "distribution": "truncated_normal", "seed": null}}, "kernel_regularizer": null, "bias_regularizer": null, "activity_regularizer": null, "kernel_constraint": null, "bias_constraint": null}, "name": "conv2d_347", "inbound_nodes": [[["re_lu_436", 0, 0, {}]]]}, {"class_name": "BatchNormalization", "config": {"name": "batch_normalization_333", "trainable": true, "dtype": "float32", "axis": [3], "momentum": 0.99, "epsilon": 0.001, "center": true, "scale": true, "beta_initializer": {"class_name": "Zeros", "config": {}}, "gamma_initializer": {"class_name": "Ones", "config": {}}, "moving_mean_initializer": {"class_name": "Zeros", "config": {}}, "moving_variance_initializer": {"class_name": "Ones", "config": {}}, "beta_regularizer": null, "gamma_regularizer": null, "beta_constraint": null, "gamma_constraint": null}, "name": "batch_normalization_333", "inbound_nodes": [[["conv2d_347", 0, 0, {}]]]}, {"class_name": "ReLU", "config": {"name": "re_lu_437", "trainable": true, "dtype": "float32", "max_value": null, "negative_slope": 0.0, "threshold": 0.0}, "name": "re_lu_437", "inbound_nodes": [[["batch_normalization_333", 0, 0, {}]]]}, {"class_name": "Conv2D", "config": {"name": "conv2d_348", "trainable": true, "dtype": "float32", "filters": 1024, "kernel_size": [1, 1], "strides": [1, 1], "padding": "same", "data_format": "channels_last", "dilation_rate": [1, 1], "activation": "linear", "use_bias": true, "kernel_initializer": {"class_name": "VarianceScaling", "config": {"scale": 2.0, "mode": "fan_in", "distribution": "truncated_normal", "seed": null}}, "bias_initializer": {"class_name": "VarianceScaling", "config": {"scale": 2.0, "mode": "fan_in", "distribution": "truncated_normal", "seed": null}}, "kernel_regularizer": null, "bias_regularizer": null, "activity_regularizer": null, "kernel_constraint": null, "bias_constraint": null}, "name": "conv2d_348", "inbound_nodes": [[["re_lu_437", 0, 0, {}]]]}, {"class_name": "Add", "config": {"name": "add_104", "trainable": true, "dtype": "float32"}, "name": "add_104", "inbound_nodes": [[["conv2d_348", 0, 0, {}], ["re_lu_434", 0, 0, {}]]]}, {"class_name": "ReLU", "config": {"name": "re_lu_438", "trainable": true, "dtype": "float32", "max_value": null, "negative_slope": 0.0, "threshold": 0.0}, "name": "re_lu_438", "inbound_nodes": [[["add_104", 0, 0, {}]]]}, {"class_name": "BatchNormalization", "config": {"name": "batch_normalization_334", "trainable": true, "dtype": "float32", "axis": [3], "momentum": 0.99, "epsilon": 0.001, "center": true, "scale": true, "beta_initializer": {"class_name": "Zeros", "config": {}}, "gamma_initializer": {"class_name": "Ones", "config": {}}, "moving_mean_initializer": {"class_name": "Zeros", "config": {}}, "moving_variance_initializer": {"class_name": "Ones", "config": {}}, "beta_regularizer": null, "gamma_regularizer": null, "beta_constraint": null, "gamma_constraint": null}, "name": "batch_normalization_334", "inbound_nodes": [[["re_lu_438", 0, 0, {}]]]}, {"class_name": "ReLU", "config": {"name": "re_lu_439", "trainable": true, "dtype": "float32", "max_value": null, "negative_slope": 0.0, "threshold": 0.0}, "name": "re_lu_439", "inbound_nodes": [[["batch_normalization_334", 0, 0, {}]]]}, {"class_name": "Conv2D", "config": {"name": "conv2d_349", "trainable": true, "dtype": "float32", "filters": 256, "kernel_size": [1, 1], "strides": [1, 1], "padding": "same", "data_format": "channels_last", "dilation_rate": [1, 1], "activation": "linear", "use_bias": true, "kernel_initializer": {"class_name": "VarianceScaling", "config": {"scale": 2.0, "mode": "fan_in", "distribution": "truncated_normal", "seed": null}}, "bias_initializer": {"class_name": "VarianceScaling", "config": {"scale": 2.0, "mode": "fan_in", "distribution": "truncated_normal", "seed": null}}, "kernel_regularizer": null, "bias_regularizer": null, "activity_regularizer": null, "kernel_constraint": null, "bias_constraint": null}, "name": "conv2d_349", "inbound_nodes": [[["re_lu_439", 0, 0, {}]]]}, {"class_name": "BatchNormalization", "config": {"name": "batch_normalization_335", "trainable": true, "dtype": "float32", "axis": [3], "momentum": 0.99, "epsilon": 0.001, "center": true, "scale": true, "beta_initializer": {"class_name": "Zeros", "config": {}}, "gamma_initializer": {"class_name": "Ones", "config": {}}, "moving_mean_initializer": {"class_name": "Zeros", "config": {}}, "moving_variance_initializer": {"class_name": "Ones", "config": {}}, "beta_regularizer": null, "gamma_regularizer": null, "beta_constraint": null, "gamma_constraint": null}, "name": "batch_normalization_335", "inbound_nodes": [[["conv2d_349", 0, 0, {}]]]}, {"class_name": "ReLU", "config": {"name": "re_lu_440", "trainable": true, "dtype": "float32", "max_value": null, "negative_slope": 0.0, "threshold": 0.0}, "name": "re_lu_440", "inbound_nodes": [[["batch_normalization_335", 0, 0, {}]]]}, {"class_name": "Conv2D", "config": {"name": "conv2d_350", "trainable": true, "dtype": "float32", "filters": 256, "kernel_size": [3, 3], "strides": [1, 1], "padding": "same", "data_format": "channels_last", "dilation_rate": [1, 1], "activation": "linear", "use_bias": true, "kernel_initializer": {"class_name": "VarianceScaling", "config": {"scale": 2.0, "mode": "fan_in", "distribution": "truncated_normal", "seed": null}}, "bias_initializer": {"class_name": "VarianceScaling", "config": {"scale": 2.0, "mode": "fan_in", "distribution": "truncated_normal", "seed": null}}, "kernel_regularizer": null, "bias_regularizer": null, "activity_regularizer": null, "kernel_constraint": null, "bias_constraint": null}, "name": "conv2d_350", "inbound_nodes": [[["re_lu_440", 0, 0, {}]]]}, {"class_name": "BatchNormalization", "config": {"name": "batch_normalization_336", "trainable": true, "dtype": "float32", "axis": [3], "momentum": 0.99, "epsilon": 0.001, "center": true, "scale": true, "beta_initializer": {"class_name": "Zeros", "config": {}}, "gamma_initializer": {"class_name": "Ones", "config": {}}, "moving_mean_initializer": {"class_name": "Zeros", "config": {}}, "moving_variance_initializer": {"class_name": "Ones", "config": {}}, "beta_regularizer": null, "gamma_regularizer": null, "beta_constraint": null, "gamma_constraint": null}, "name": "batch_normalization_336", "inbound_nodes": [[["conv2d_350", 0, 0, {}]]]}, {"class_name": "ReLU", "config": {"name": "re_lu_441", "trainable": true, "dtype": "float32", "max_value": null, "negative_slope": 0.0, "threshold": 0.0}, "name": "re_lu_441", "inbound_nodes": [[["batch_normalization_336", 0, 0, {}]]]}, {"class_name": "Conv2D", "config": {"name": "conv2d_351", "trainable": true, "dtype": "float32", "filters": 1024, "kernel_size": [1, 1], "strides": [1, 1], "padding": "same", "data_format": "channels_last", "dilation_rate": [1, 1], "activation": "linear", "use_bias": true, "kernel_initializer": {"class_name": "VarianceScaling", "config": {"scale": 2.0, "mode": "fan_in", "distribution": "truncated_normal", "seed": null}}, "bias_initializer": {"class_name": "VarianceScaling", "config": {"scale": 2.0, "mode": "fan_in", "distribution": "truncated_normal", "seed": null}}, "kernel_regularizer": null, "bias_regularizer": null, "activity_regularizer": null, "kernel_constraint": null, "bias_constraint": null}, "name": "conv2d_351", "inbound_nodes": [[["re_lu_441", 0, 0, {}]]]}, {"class_name": "Add", "config": {"name": "add_105", "trainable": true, "dtype": "float32"}, "name": "add_105", "inbound_nodes": [[["conv2d_351", 0, 0, {}], ["re_lu_438", 0, 0, {}]]]}, {"class_name": "ReLU", "config": {"name": "re_lu_442", "trainable": true, "dtype": "float32", "max_value": null, "negative_slope": 0.0, "threshold": 0.0}, "name": "re_lu_442", "inbound_nodes": [[["add_105", 0, 0, {}]]]}, {"class_name": "BatchNormalization", "config": {"name": "batch_normalization_337", "trainable": true, "dtype": "float32", "axis": [3], "momentum": 0.99, "epsilon": 0.001, "center": true, "scale": true, "beta_initializer": {"class_name": "Zeros", "config": {}}, "gamma_initializer": {"class_name": "Ones", "config": {}}, "moving_mean_initializer": {"class_name": "Zeros", "config": {}}, "moving_variance_initializer": {"class_name": "Ones", "config": {}}, "beta_regularizer": null, "gamma_regularizer": null, "beta_constraint": null, "gamma_constraint": null}, "name": "batch_normalization_337", "inbound_nodes": [[["re_lu_442", 0, 0, {}]]]}, {"class_name": "ReLU", "config": {"name": "re_lu_443", "trainable": true, "dtype": "float32", "max_value": null, "negative_slope": 0.0, "threshold": 0.0}, "name": "re_lu_443", "inbound_nodes": [[["batch_normalization_337", 0, 0, {}]]]}, {"class_name": "Conv2D", "config": {"name": "conv2d_352", "trainable": true, "dtype": "float32", "filters": 256, "kernel_size": [1, 1], "strides": [1, 1], "padding": "same", "data_format": "channels_last", "dilation_rate": [1, 1], "activation": "linear", "use_bias": true, "kernel_initializer": {"class_name": "VarianceScaling", "config": {"scale": 2.0, "mode": "fan_in", "distribution": "truncated_normal", "seed": null}}, "bias_initializer": {"class_name": "VarianceScaling", "config": {"scale": 2.0, "mode": "fan_in", "distribution": "truncated_normal", "seed": null}}, "kernel_regularizer": null, "bias_regularizer": null, "activity_regularizer": null, "kernel_constraint": null, "bias_constraint": null}, "name": "conv2d_352", "inbound_nodes": [[["re_lu_443", 0, 0, {}]]]}, {"class_name": "BatchNormalization", "config": {"name": "batch_normalization_338", "trainable": true, "dtype": "float32", "axis": [3], "momentum": 0.99, "epsilon": 0.001, "center": true, "scale": true, "beta_initializer": {"class_name": "Zeros", "config": {}}, "gamma_initializer": {"class_name": "Ones", "config": {}}, "moving_mean_initializer": {"class_name": "Zeros", "config": {}}, "moving_variance_initializer": {"class_name": "Ones", "config": {}}, "beta_regularizer": null, "gamma_regularizer": null, "beta_constraint": null, "gamma_constraint": null}, "name": "batch_normalization_338", "inbound_nodes": [[["conv2d_352", 0, 0, {}]]]}, {"class_name": "ReLU", "config": {"name": "re_lu_444", "trainable": true, "dtype": "float32", "max_value": null, "negative_slope": 0.0, "threshold": 0.0}, "name": "re_lu_444", "inbound_nodes": [[["batch_normalization_338", 0, 0, {}]]]}, {"class_name": "Conv2D", "config": {"name": "conv2d_353", "trainable": true, "dtype": "float32", "filters": 256, "kernel_size": [3, 3], "strides": [1, 1], "padding": "same", "data_format": "channels_last", "dilation_rate": [1, 1], "activation": "linear", "use_bias": true, "kernel_initializer": {"class_name": "VarianceScaling", "config": {"scale": 2.0, "mode": "fan_in", "distribution": "truncated_normal", "seed": null}}, "bias_initializer": {"class_name": "VarianceScaling", "config": {"scale": 2.0, "mode": "fan_in", "distribution": "truncated_normal", "seed": null}}, "kernel_regularizer": null, "bias_regularizer": null, "activity_regularizer": null, "kernel_constraint": null, "bias_constraint": null}, "name": "conv2d_353", "inbound_nodes": [[["re_lu_444", 0, 0, {}]]]}, {"class_name": "BatchNormalization", "config": {"name": "batch_normalization_339", "trainable": true, "dtype": "float32", "axis": [3], "momentum": 0.99, "epsilon": 0.001, "center": true, "scale": true, "beta_initializer": {"class_name": "Zeros", "config": {}}, "gamma_initializer": {"class_name": "Ones", "config": {}}, "moving_mean_initializer": {"class_name": "Zeros", "config": {}}, "moving_variance_initializer": {"class_name": "Ones", "config": {}}, "beta_regularizer": null, "gamma_regularizer": null, "beta_constraint": null, "gamma_constraint": null}, "name": "batch_normalization_339", "inbound_nodes": [[["conv2d_353", 0, 0, {}]]]}, {"class_name": "ReLU", "config": {"name": "re_lu_445", "trainable": true, "dtype": "float32", "max_value": null, "negative_slope": 0.0, "threshold": 0.0}, "name": "re_lu_445", "inbound_nodes": [[["batch_normalization_339", 0, 0, {}]]]}, {"class_name": "Conv2D", "config": {"name": "conv2d_354", "trainable": true, "dtype": "float32", "filters": 1024, "kernel_size": [1, 1], "strides": [1, 1], "padding": "same", "data_format": "channels_last", "dilation_rate": [1, 1], "activation": "linear", "use_bias": true, "kernel_initializer": {"class_name": "VarianceScaling", "config": {"scale": 2.0, "mode": "fan_in", "distribution": "truncated_normal", "seed": null}}, "bias_initializer": {"class_name": "VarianceScaling", "config": {"scale": 2.0, "mode": "fan_in", "distribution": "truncated_normal", "seed": null}}, "kernel_regularizer": null, "bias_regularizer": null, "activity_regularizer": null, "kernel_constraint": null, "bias_constraint": null}, "name": "conv2d_354", "inbound_nodes": [[["re_lu_445", 0, 0, {}]]]}, {"class_name": "Add", "config": {"name": "add_106", "trainable": true, "dtype": "float32"}, "name": "add_106", "inbound_nodes": [[["conv2d_354", 0, 0, {}], ["re_lu_442", 0, 0, {}]]]}, {"class_name": "ReLU", "config": {"name": "re_lu_446", "trainable": true, "dtype": "float32", "max_value": null, "negative_slope": 0.0, "threshold": 0.0}, "name": "re_lu_446", "inbound_nodes": [[["add_106", 0, 0, {}]]]}, {"class_name": "BatchNormalization", "config": {"name": "batch_normalization_340", "trainable": true, "dtype": "float32", "axis": [3], "momentum": 0.99, "epsilon": 0.001, "center": true, "scale": true, "beta_initializer": {"class_name": "Zeros", "config": {}}, "gamma_initializer": {"class_name": "Ones", "config": {}}, "moving_mean_initializer": {"class_name": "Zeros", "config": {}}, "moving_variance_initializer": {"class_name": "Ones", "config": {}}, "beta_regularizer": null, "gamma_regularizer": null, "beta_constraint": null, "gamma_constraint": null}, "name": "batch_normalization_340", "inbound_nodes": [[["re_lu_446", 0, 0, {}]]]}, {"class_name": "ReLU", "config": {"name": "re_lu_447", "trainable": true, "dtype": "float32", "max_value": null, "negative_slope": 0.0, "threshold": 0.0}, "name": "re_lu_447", "inbound_nodes": [[["batch_normalization_340", 0, 0, {}]]]}, {"class_name": "Conv2D", "config": {"name": "conv2d_355", "trainable": true, "dtype": "float32", "filters": 256, "kernel_size": [1, 1], "strides": [1, 1], "padding": "same", "data_format": "channels_last", "dilation_rate": [1, 1], "activation": "linear", "use_bias": true, "kernel_initializer": {"class_name": "VarianceScaling", "config": {"scale": 2.0, "mode": "fan_in", "distribution": "truncated_normal", "seed": null}}, "bias_initializer": {"class_name": "VarianceScaling", "config": {"scale": 2.0, "mode": "fan_in", "distribution": "truncated_normal", "seed": null}}, "kernel_regularizer": null, "bias_regularizer": null, "activity_regularizer": null, "kernel_constraint": null, "bias_constraint": null}, "name": "conv2d_355", "inbound_nodes": [[["re_lu_447", 0, 0, {}]]]}, {"class_name": "BatchNormalization", "config": {"name": "batch_normalization_341", "trainable": true, "dtype": "float32", "axis": [3], "momentum": 0.99, "epsilon": 0.001, "center": true, "scale": true, "beta_initializer": {"class_name": "Zeros", "config": {}}, "gamma_initializer": {"class_name": "Ones", "config": {}}, "moving_mean_initializer": {"class_name": "Zeros", "config": {}}, "moving_variance_initializer": {"class_name": "Ones", "config": {}}, "beta_regularizer": null, "gamma_regularizer": null, "beta_constraint": null, "gamma_constraint": null}, "name": "batch_normalization_341", "inbound_nodes": [[["conv2d_355", 0, 0, {}]]]}, {"class_name": "ReLU", "config": {"name": "re_lu_448", "trainable": true, "dtype": "float32", "max_value": null, "negative_slope": 0.0, "threshold": 0.0}, "name": "re_lu_448", "inbound_nodes": [[["batch_normalization_341", 0, 0, {}]]]}, {"class_name": "Conv2D", "config": {"name": "conv2d_356", "trainable": true, "dtype": "float32", "filters": 256, "kernel_size": [3, 3], "strides": [1, 1], "padding": "same", "data_format": "channels_last", "dilation_rate": [1, 1], "activation": "linear", "use_bias": true, "kernel_initializer": {"class_name": "VarianceScaling", "config": {"scale": 2.0, "mode": "fan_in", "distribution": "truncated_normal", "seed": null}}, "bias_initializer": {"class_name": "VarianceScaling", "config": {"scale": 2.0, "mode": "fan_in", "distribution": "truncated_normal", "seed": null}}, "kernel_regularizer": null, "bias_regularizer": null, "activity_regularizer": null, "kernel_constraint": null, "bias_constraint": null}, "name": "conv2d_356", "inbound_nodes": [[["re_lu_448", 0, 0, {}]]]}, {"class_name": "BatchNormalization", "config": {"name": "batch_normalization_342", "trainable": true, "dtype": "float32", "axis": [3], "momentum": 0.99, "epsilon": 0.001, "center": true, "scale": true, "beta_initializer": {"class_name": "Zeros", "config": {}}, "gamma_initializer": {"class_name": "Ones", "config": {}}, "moving_mean_initializer": {"class_name": "Zeros", "config": {}}, "moving_variance_initializer": {"class_name": "Ones", "config": {}}, "beta_regularizer": null, "gamma_regularizer": null, "beta_constraint": null, "gamma_constraint": null}, "name": "batch_normalization_342", "inbound_nodes": [[["conv2d_356", 0, 0, {}]]]}, {"class_name": "ReLU", "config": {"name": "re_lu_449", "trainable": true, "dtype": "float32", "max_value": null, "negative_slope": 0.0, "threshold": 0.0}, "name": "re_lu_449", "inbound_nodes": [[["batch_normalization_342", 0, 0, {}]]]}, {"class_name": "Conv2D", "config": {"name": "conv2d_357", "trainable": true, "dtype": "float32", "filters": 1024, "kernel_size": [1, 1], "strides": [1, 1], "padding": "same", "data_format": "channels_last", "dilation_rate": [1, 1], "activation": "linear", "use_bias": true, "kernel_initializer": {"class_name": "VarianceScaling", "config": {"scale": 2.0, "mode": "fan_in", "distribution": "truncated_normal", "seed": null}}, "bias_initializer": {"class_name": "VarianceScaling", "config": {"scale": 2.0, "mode": "fan_in", "distribution": "truncated_normal", "seed": null}}, "kernel_regularizer": null, "bias_regularizer": null, "activity_regularizer": null, "kernel_constraint": null, "bias_constraint": null}, "name": "conv2d_357", "inbound_nodes": [[["re_lu_449", 0, 0, {}]]]}, {"class_name": "Add", "config": {"name": "add_107", "trainable": true, "dtype": "float32"}, "name": "add_107", "inbound_nodes": [[["conv2d_357", 0, 0, {}], ["re_lu_446", 0, 0, {}]]]}, {"class_name": "ReLU", "config": {"name": "re_lu_450", "trainable": true, "dtype": "float32", "max_value": null, "negative_slope": 0.0, "threshold": 0.0}, "name": "re_lu_450", "inbound_nodes": [[["add_107", 0, 0, {}]]]}, {"class_name": "BatchNormalization", "config": {"name": "batch_normalization_343", "trainable": true, "dtype": "float32", "axis": [3], "momentum": 0.99, "epsilon": 0.001, "center": true, "scale": true, "beta_initializer": {"class_name": "Zeros", "config": {}}, "gamma_initializer": {"class_name": "Ones", "config": {}}, "moving_mean_initializer": {"class_name": "Zeros", "config": {}}, "moving_variance_initializer": {"class_name": "Ones", "config": {}}, "beta_regularizer": null, "gamma_regularizer": null, "beta_constraint": null, "gamma_constraint": null}, "name": "batch_normalization_343", "inbound_nodes": [[["re_lu_450", 0, 0, {}]]]}, {"class_name": "ReLU", "config": {"name": "re_lu_451", "trainable": true, "dtype": "float32", "max_value": null, "negative_slope": 0.0, "threshold": 0.0}, "name": "re_lu_451", "inbound_nodes": [[["batch_normalization_343", 0, 0, {}]]]}, {"class_name": "Conv2D", "config": {"name": "conv2d_358", "trainable": true, "dtype": "float32", "filters": 256, "kernel_size": [1, 1], "strides": [1, 1], "padding": "same", "data_format": "channels_last", "dilation_rate": [1, 1], "activation": "linear", "use_bias": true, "kernel_initializer": {"class_name": "VarianceScaling", "config": {"scale": 2.0, "mode": "fan_in", "distribution": "truncated_normal", "seed": null}}, "bias_initializer": {"class_name": "VarianceScaling", "config": {"scale": 2.0, "mode": "fan_in", "distribution": "truncated_normal", "seed": null}}, "kernel_regularizer": null, "bias_regularizer": null, "activity_regularizer": null, "kernel_constraint": null, "bias_constraint": null}, "name": "conv2d_358", "inbound_nodes": [[["re_lu_451", 0, 0, {}]]]}, {"class_name": "BatchNormalization", "config": {"name": "batch_normalization_344", "trainable": true, "dtype": "float32", "axis": [3], "momentum": 0.99, "epsilon": 0.001, "center": true, "scale": true, "beta_initializer": {"class_name": "Zeros", "config": {}}, "gamma_initializer": {"class_name": "Ones", "config": {}}, "moving_mean_initializer": {"class_name": "Zeros", "config": {}}, "moving_variance_initializer": {"class_name": "Ones", "config": {}}, "beta_regularizer": null, "gamma_regularizer": null, "beta_constraint": null, "gamma_constraint": null}, "name": "batch_normalization_344", "inbound_nodes": [[["conv2d_358", 0, 0, {}]]]}, {"class_name": "ReLU", "config": {"name": "re_lu_452", "trainable": true, "dtype": "float32", "max_value": null, "negative_slope": 0.0, "threshold": 0.0}, "name": "re_lu_452", "inbound_nodes": [[["batch_normalization_344", 0, 0, {}]]]}, {"class_name": "Conv2D", "config": {"name": "conv2d_359", "trainable": true, "dtype": "float32", "filters": 256, "kernel_size": [3, 3], "strides": [1, 1], "padding": "same", "data_format": "channels_last", "dilation_rate": [1, 1], "activation": "linear", "use_bias": true, "kernel_initializer": {"class_name": "VarianceScaling", "config": {"scale": 2.0, "mode": "fan_in", "distribution": "truncated_normal", "seed": null}}, "bias_initializer": {"class_name": "VarianceScaling", "config": {"scale": 2.0, "mode": "fan_in", "distribution": "truncated_normal", "seed": null}}, "kernel_regularizer": null, "bias_regularizer": null, "activity_regularizer": null, "kernel_constraint": null, "bias_constraint": null}, "name": "conv2d_359", "inbound_nodes": [[["re_lu_452", 0, 0, {}]]]}, {"class_name": "BatchNormalization", "config": {"name": "batch_normalization_345", "trainable": true, "dtype": "float32", "axis": [3], "momentum": 0.99, "epsilon": 0.001, "center": true, "scale": true, "beta_initializer": {"class_name": "Zeros", "config": {}}, "gamma_initializer": {"class_name": "Ones", "config": {}}, "moving_mean_initializer": {"class_name": "Zeros", "config": {}}, "moving_variance_initializer": {"class_name": "Ones", "config": {}}, "beta_regularizer": null, "gamma_regularizer": null, "beta_constraint": null, "gamma_constraint": null}, "name": "batch_normalization_345", "inbound_nodes": [[["conv2d_359", 0, 0, {}]]]}, {"class_name": "ReLU", "config": {"name": "re_lu_453", "trainable": true, "dtype": "float32", "max_value": null, "negative_slope": 0.0, "threshold": 0.0}, "name": "re_lu_453", "inbound_nodes": [[["batch_normalization_345", 0, 0, {}]]]}, {"class_name": "Conv2D", "config": {"name": "conv2d_360", "trainable": true, "dtype": "float32", "filters": 1024, "kernel_size": [1, 1], "strides": [1, 1], "padding": "same", "data_format": "channels_last", "dilation_rate": [1, 1], "activation": "linear", "use_bias": true, "kernel_initializer": {"class_name": "VarianceScaling", "config": {"scale": 2.0, "mode": "fan_in", "distribution": "truncated_normal", "seed": null}}, "bias_initializer": {"class_name": "VarianceScaling", "config": {"scale": 2.0, "mode": "fan_in", "distribution": "truncated_normal", "seed": null}}, "kernel_regularizer": null, "bias_regularizer": null, "activity_regularizer": null, "kernel_constraint": null, "bias_constraint": null}, "name": "conv2d_360", "inbound_nodes": [[["re_lu_453", 0, 0, {}]]]}, {"class_name": "Add", "config": {"name": "add_108", "trainable": true, "dtype": "float32"}, "name": "add_108", "inbound_nodes": [[["conv2d_360", 0, 0, {}], ["re_lu_450", 0, 0, {}]]]}, {"class_name": "ReLU", "config": {"name": "re_lu_454", "trainable": true, "dtype": "float32", "max_value": null, "negative_slope": 0.0, "threshold": 0.0}, "name": "re_lu_454", "inbound_nodes": [[["add_108", 0, 0, {}]]]}, {"class_name": "BatchNormalization", "config": {"name": "batch_normalization_346", "trainable": true, "dtype": "float32", "axis": [3], "momentum": 0.99, "epsilon": 0.001, "center": true, "scale": true, "beta_initializer": {"class_name": "Zeros", "config": {}}, "gamma_initializer": {"class_name": "Ones", "config": {}}, "moving_mean_initializer": {"class_name": "Zeros", "config": {}}, "moving_variance_initializer": {"class_name": "Ones", "config": {}}, "beta_regularizer": null, "gamma_regularizer": null, "beta_constraint": null, "gamma_constraint": null}, "name": "batch_normalization_346", "inbound_nodes": [[["re_lu_454", 0, 0, {}]]]}, {"class_name": "ReLU", "config": {"name": "re_lu_455", "trainable": true, "dtype": "float32", "max_value": null, "negative_slope": 0.0, "threshold": 0.0}, "name": "re_lu_455", "inbound_nodes": [[["batch_normalization_346", 0, 0, {}]]]}, {"class_name": "Conv2D", "config": {"name": "conv2d_361", "trainable": true, "dtype": "float32", "filters": 512, "kernel_size": [1, 1], "strides": [1, 1], "padding": "same", "data_format": "channels_last", "dilation_rate": [1, 1], "activation": "linear", "use_bias": true, "kernel_initializer": {"class_name": "VarianceScaling", "config": {"scale": 2.0, "mode": "fan_in", "distribution": "truncated_normal", "seed": null}}, "bias_initializer": {"class_name": "VarianceScaling", "config": {"scale": 2.0, "mode": "fan_in", "distribution": "truncated_normal", "seed": null}}, "kernel_regularizer": null, "bias_regularizer": null, "activity_regularizer": null, "kernel_constraint": null, "bias_constraint": null}, "name": "conv2d_361", "inbound_nodes": [[["re_lu_455", 0, 0, {}]]]}, {"class_name": "BatchNormalization", "config": {"name": "batch_normalization_347", "trainable": true, "dtype": "float32", "axis": [3], "momentum": 0.99, "epsilon": 0.001, "center": true, "scale": true, "beta_initializer": {"class_name": "Zeros", "config": {}}, "gamma_initializer": {"class_name": "Ones", "config": {}}, "moving_mean_initializer": {"class_name": "Zeros", "config": {}}, "moving_variance_initializer": {"class_name": "Ones", "config": {}}, "beta_regularizer": null, "gamma_regularizer": null, "beta_constraint": null, "gamma_constraint": null}, "name": "batch_normalization_347", "inbound_nodes": [[["conv2d_361", 0, 0, {}]]]}, {"class_name": "ReLU", "config": {"name": "re_lu_456", "trainable": true, "dtype": "float32", "max_value": null, "negative_slope": 0.0, "threshold": 0.0}, "name": "re_lu_456", "inbound_nodes": [[["batch_normalization_347", 0, 0, {}]]]}, {"class_name": "Conv2D", "config": {"name": "conv2d_362", "trainable": true, "dtype": "float32", "filters": 512, "kernel_size": [3, 3], "strides": [2, 2], "padding": "same", "data_format": "channels_last", "dilation_rate": [1, 1], "activation": "linear", "use_bias": true, "kernel_initializer": {"class_name": "VarianceScaling", "config": {"scale": 2.0, "mode": "fan_in", "distribution": "truncated_normal", "seed": null}}, "bias_initializer": {"class_name": "VarianceScaling", "config": {"scale": 2.0, "mode": "fan_in", "distribution": "truncated_normal", "seed": null}}, "kernel_regularizer": null, "bias_regularizer": null, "activity_regularizer": null, "kernel_constraint": null, "bias_constraint": null}, "name": "conv2d_362", "inbound_nodes": [[["re_lu_456", 0, 0, {}]]]}, {"class_name": "BatchNormalization", "config": {"name": "batch_normalization_348", "trainable": true, "dtype": "float32", "axis": [3], "momentum": 0.99, "epsilon": 0.001, "center": true, "scale": true, "beta_initializer": {"class_name": "Zeros", "config": {}}, "gamma_initializer": {"class_name": "Ones", "config": {}}, "moving_mean_initializer": {"class_name": "Zeros", "config": {}}, "moving_variance_initializer": {"class_name": "Ones", "config": {}}, "beta_regularizer": null, "gamma_regularizer": null, "beta_constraint": null, "gamma_constraint": null}, "name": "batch_normalization_348", "inbound_nodes": [[["conv2d_362", 0, 0, {}]]]}, {"class_name": "ReLU", "config": {"name": "re_lu_457", "trainable": true, "dtype": "float32", "max_value": null, "negative_slope": 0.0, "threshold": 0.0}, "name": "re_lu_457", "inbound_nodes": [[["batch_normalization_348", 0, 0, {}]]]}, {"class_name": "Conv2D", "config": {"name": "conv2d_363", "trainable": true, "dtype": "float32", "filters": 2048, "kernel_size": [1, 1], "strides": [1, 1], "padding": "same", "data_format": "channels_last", "dilation_rate": [1, 1], "activation": "linear", "use_bias": true, "kernel_initializer": {"class_name": "VarianceScaling", "config": {"scale": 2.0, "mode": "fan_in", "distribution": "truncated_normal", "seed": null}}, "bias_initializer": {"class_name": "VarianceScaling", "config": {"scale": 2.0, "mode": "fan_in", "distribution": "truncated_normal", "seed": null}}, "kernel_regularizer": null, "bias_regularizer": null, "activity_regularizer": null, "kernel_constraint": null, "bias_constraint": null}, "name": "conv2d_363", "inbound_nodes": [[["re_lu_457", 0, 0, {}]]]}, {"class_name": "Conv2D", "config": {"name": "conv2d_364", "trainable": true, "dtype": "float32", "filters": 2048, "kernel_size": [1, 1], "strides": [2, 2], "padding": "valid", "data_format": "channels_last", "dilation_rate": [1, 1], "activation": "linear", "use_bias": true, "kernel_initializer": {"class_name": "VarianceScaling", "config": {"scale": 2.0, "mode": "fan_in", "distribution": "truncated_normal", "seed": null}}, "bias_initializer": {"class_name": "VarianceScaling", "config": {"scale": 2.0, "mode": "fan_in", "distribution": "truncated_normal", "seed": null}}, "kernel_regularizer": null, "bias_regularizer": null, "activity_regularizer": null, "kernel_constraint": null, "bias_constraint": null}, "name": "conv2d_364", "inbound_nodes": [[["re_lu_454", 0, 0, {}]]]}, {"class_name": "Add", "config": {"name": "add_109", "trainable": true, "dtype": "float32"}, "name": "add_109", "inbound_nodes": [[["conv2d_363", 0, 0, {}], ["conv2d_364", 0, 0, {}]]]}, {"class_name": "ReLU", "config": {"name": "re_lu_458", "trainable": true, "dtype": "float32", "max_value": null, "negative_slope": 0.0, "threshold": 0.0}, "name": "re_lu_458", "inbound_nodes": [[["add_109", 0, 0, {}]]]}, {"class_name": "BatchNormalization", "config": {"name": "batch_normalization_349", "trainable": true, "dtype": "float32", "axis": [3], "momentum": 0.99, "epsilon": 0.001, "center": true, "scale": true, "beta_initializer": {"class_name": "Zeros", "config": {}}, "gamma_initializer": {"class_name": "Ones", "config": {}}, "moving_mean_initializer": {"class_name": "Zeros", "config": {}}, "moving_variance_initializer": {"class_name": "Ones", "config": {}}, "beta_regularizer": null, "gamma_regularizer": null, "beta_constraint": null, "gamma_constraint": null}, "name": "batch_normalization_349", "inbound_nodes": [[["re_lu_458", 0, 0, {}]]]}, {"class_name": "ReLU", "config": {"name": "re_lu_459", "trainable": true, "dtype": "float32", "max_value": null, "negative_slope": 0.0, "threshold": 0.0}, "name": "re_lu_459", "inbound_nodes": [[["batch_normalization_349", 0, 0, {}]]]}, {"class_name": "Conv2D", "config": {"name": "conv2d_365", "trainable": true, "dtype": "float32", "filters": 512, "kernel_size": [1, 1], "strides": [1, 1], "padding": "same", "data_format": "channels_last", "dilation_rate": [1, 1], "activation": "linear", "use_bias": true, "kernel_initializer": {"class_name": "VarianceScaling", "config": {"scale": 2.0, "mode": "fan_in", "distribution": "truncated_normal", "seed": null}}, "bias_initializer": {"class_name": "VarianceScaling", "config": {"scale": 2.0, "mode": "fan_in", "distribution": "truncated_normal", "seed": null}}, "kernel_regularizer": null, "bias_regularizer": null, "activity_regularizer": null, "kernel_constraint": null, "bias_constraint": null}, "name": "conv2d_365", "inbound_nodes": [[["re_lu_459", 0, 0, {}]]]}, {"class_name": "BatchNormalization", "config": {"name": "batch_normalization_350", "trainable": true, "dtype": "float32", "axis": [3], "momentum": 0.99, "epsilon": 0.001, "center": true, "scale": true, "beta_initializer": {"class_name": "Zeros", "config": {}}, "gamma_initializer": {"class_name": "Ones", "config": {}}, "moving_mean_initializer": {"class_name": "Zeros", "config": {}}, "moving_variance_initializer": {"class_name": "Ones", "config": {}}, "beta_regularizer": null, "gamma_regularizer": null, "beta_constraint": null, "gamma_constraint": null}, "name": "batch_normalization_350", "inbound_nodes": [[["conv2d_365", 0, 0, {}]]]}, {"class_name": "ReLU", "config": {"name": "re_lu_460", "trainable": true, "dtype": "float32", "max_value": null, "negative_slope": 0.0, "threshold": 0.0}, "name": "re_lu_460", "inbound_nodes": [[["batch_normalization_350", 0, 0, {}]]]}, {"class_name": "Conv2D", "config": {"name": "conv2d_366", "trainable": true, "dtype": "float32", "filters": 512, "kernel_size": [3, 3], "strides": [1, 1], "padding": "same", "data_format": "channels_last", "dilation_rate": [1, 1], "activation": "linear", "use_bias": true, "kernel_initializer": {"class_name": "VarianceScaling", "config": {"scale": 2.0, "mode": "fan_in", "distribution": "truncated_normal", "seed": null}}, "bias_initializer": {"class_name": "VarianceScaling", "config": {"scale": 2.0, "mode": "fan_in", "distribution": "truncated_normal", "seed": null}}, "kernel_regularizer": null, "bias_regularizer": null, "activity_regularizer": null, "kernel_constraint": null, "bias_constraint": null}, "name": "conv2d_366", "inbound_nodes": [[["re_lu_460", 0, 0, {}]]]}, {"class_name": "BatchNormalization", "config": {"name": "batch_normalization_351", "trainable": true, "dtype": "float32", "axis": [3], "momentum": 0.99, "epsilon": 0.001, "center": true, "scale": true, "beta_initializer": {"class_name": "Zeros", "config": {}}, "gamma_initializer": {"class_name": "Ones", "config": {}}, "moving_mean_initializer": {"class_name": "Zeros", "config": {}}, "moving_variance_initializer": {"class_name": "Ones", "config": {}}, "beta_regularizer": null, "gamma_regularizer": null, "beta_constraint": null, "gamma_constraint": null}, "name": "batch_normalization_351", "inbound_nodes": [[["conv2d_366", 0, 0, {}]]]}, {"class_name": "ReLU", "config": {"name": "re_lu_461", "trainable": true, "dtype": "float32", "max_value": null, "negative_slope": 0.0, "threshold": 0.0}, "name": "re_lu_461", "inbound_nodes": [[["batch_normalization_351", 0, 0, {}]]]}, {"class_name": "Conv2D", "config": {"name": "conv2d_367", "trainable": true, "dtype": "float32", "filters": 2048, "kernel_size": [1, 1], "strides": [1, 1], "padding": "same", "data_format": "channels_last", "dilation_rate": [1, 1], "activation": "linear", "use_bias": true, "kernel_initializer": {"class_name": "VarianceScaling", "config": {"scale": 2.0, "mode": "fan_in", "distribution": "truncated_normal", "seed": null}}, "bias_initializer": {"class_name": "VarianceScaling", "config": {"scale": 2.0, "mode": "fan_in", "distribution": "truncated_normal", "seed": null}}, "kernel_regularizer": null, "bias_regularizer": null, "activity_regularizer": null, "kernel_constraint": null, "bias_constraint": null}, "name": "conv2d_367", "inbound_nodes": [[["re_lu_461", 0, 0, {}]]]}, {"class_name": "Add", "config": {"name": "add_110", "trainable": true, "dtype": "float32"}, "name": "add_110", "inbound_nodes": [[["conv2d_367", 0, 0, {}], ["re_lu_458", 0, 0, {}]]]}, {"class_name": "ReLU", "config": {"name": "re_lu_462", "trainable": true, "dtype": "float32", "max_value": null, "negative_slope": 0.0, "threshold": 0.0}, "name": "re_lu_462", "inbound_nodes": [[["add_110", 0, 0, {}]]]}, {"class_name": "BatchNormalization", "config": {"name": "batch_normalization_352", "trainable": true, "dtype": "float32", "axis": [3], "momentum": 0.99, "epsilon": 0.001, "center": true, "scale": true, "beta_initializer": {"class_name": "Zeros", "config": {}}, "gamma_initializer": {"class_name": "Ones", "config": {}}, "moving_mean_initializer": {"class_name": "Zeros", "config": {}}, "moving_variance_initializer": {"class_name": "Ones", "config": {}}, "beta_regularizer": null, "gamma_regularizer": null, "beta_constraint": null, "gamma_constraint": null}, "name": "batch_normalization_352", "inbound_nodes": [[["re_lu_462", 0, 0, {}]]]}, {"class_name": "ReLU", "config": {"name": "re_lu_463", "trainable": true, "dtype": "float32", "max_value": null, "negative_slope": 0.0, "threshold": 0.0}, "name": "re_lu_463", "inbound_nodes": [[["batch_normalization_352", 0, 0, {}]]]}, {"class_name": "Conv2D", "config": {"name": "conv2d_368", "trainable": true, "dtype": "float32", "filters": 512, "kernel_size": [1, 1], "strides": [1, 1], "padding": "same", "data_format": "channels_last", "dilation_rate": [1, 1], "activation": "linear", "use_bias": true, "kernel_initializer": {"class_name": "VarianceScaling", "config": {"scale": 2.0, "mode": "fan_in", "distribution": "truncated_normal", "seed": null}}, "bias_initializer": {"class_name": "VarianceScaling", "config": {"scale": 2.0, "mode": "fan_in", "distribution": "truncated_normal", "seed": null}}, "kernel_regularizer": null, "bias_regularizer": null, "activity_regularizer": null, "kernel_constraint": null, "bias_constraint": null}, "name": "conv2d_368", "inbound_nodes": [[["re_lu_463", 0, 0, {}]]]}, {"class_name": "BatchNormalization", "config": {"name": "batch_normalization_353", "trainable": true, "dtype": "float32", "axis": [3], "momentum": 0.99, "epsilon": 0.001, "center": true, "scale": true, "beta_initializer": {"class_name": "Zeros", "config": {}}, "gamma_initializer": {"class_name": "Ones", "config": {}}, "moving_mean_initializer": {"class_name": "Zeros", "config": {}}, "moving_variance_initializer": {"class_name": "Ones", "config": {}}, "beta_regularizer": null, "gamma_regularizer": null, "beta_constraint": null, "gamma_constraint": null}, "name": "batch_normalization_353", "inbound_nodes": [[["conv2d_368", 0, 0, {}]]]}, {"class_name": "ReLU", "config": {"name": "re_lu_464", "trainable": true, "dtype": "float32", "max_value": null, "negative_slope": 0.0, "threshold": 0.0}, "name": "re_lu_464", "inbound_nodes": [[["batch_normalization_353", 0, 0, {}]]]}, {"class_name": "Conv2D", "config": {"name": "conv2d_369", "trainable": true, "dtype": "float32", "filters": 512, "kernel_size": [3, 3], "strides": [1, 1], "padding": "same", "data_format": "channels_last", "dilation_rate": [1, 1], "activation": "linear", "use_bias": true, "kernel_initializer": {"class_name": "VarianceScaling", "config": {"scale": 2.0, "mode": "fan_in", "distribution": "truncated_normal", "seed": null}}, "bias_initializer": {"class_name": "VarianceScaling", "config": {"scale": 2.0, "mode": "fan_in", "distribution": "truncated_normal", "seed": null}}, "kernel_regularizer": null, "bias_regularizer": null, "activity_regularizer": null, "kernel_constraint": null, "bias_constraint": null}, "name": "conv2d_369", "inbound_nodes": [[["re_lu_464", 0, 0, {}]]]}, {"class_name": "BatchNormalization", "config": {"name": "batch_normalization_354", "trainable": true, "dtype": "float32", "axis": [3], "momentum": 0.99, "epsilon": 0.001, "center": true, "scale": true, "beta_initializer": {"class_name": "Zeros", "config": {}}, "gamma_initializer": {"class_name": "Ones", "config": {}}, "moving_mean_initializer": {"class_name": "Zeros", "config": {}}, "moving_variance_initializer": {"class_name": "Ones", "config": {}}, "beta_regularizer": null, "gamma_regularizer": null, "beta_constraint": null, "gamma_constraint": null}, "name": "batch_normalization_354", "inbound_nodes": [[["conv2d_369", 0, 0, {}]]]}, {"class_name": "ReLU", "config": {"name": "re_lu_465", "trainable": true, "dtype": "float32", "max_value": null, "negative_slope": 0.0, "threshold": 0.0}, "name": "re_lu_465", "inbound_nodes": [[["batch_normalization_354", 0, 0, {}]]]}, {"class_name": "Conv2D", "config": {"name": "conv2d_370", "trainable": true, "dtype": "float32", "filters": 2048, "kernel_size": [1, 1], "strides": [1, 1], "padding": "same", "data_format": "channels_last", "dilation_rate": [1, 1], "activation": "linear", "use_bias": true, "kernel_initializer": {"class_name": "VarianceScaling", "config": {"scale": 2.0, "mode": "fan_in", "distribution": "truncated_normal", "seed": null}}, "bias_initializer": {"class_name": "VarianceScaling", "config": {"scale": 2.0, "mode": "fan_in", "distribution": "truncated_normal", "seed": null}}, "kernel_regularizer": null, "bias_regularizer": null, "activity_regularizer": null, "kernel_constraint": null, "bias_constraint": null}, "name": "conv2d_370", "inbound_nodes": [[["re_lu_465", 0, 0, {}]]]}, {"class_name": "Add", "config": {"name": "add_111", "trainable": true, "dtype": "float32"}, "name": "add_111", "inbound_nodes": [[["conv2d_370", 0, 0, {}], ["re_lu_462", 0, 0, {}]]]}, {"class_name": "ReLU", "config": {"name": "re_lu_466", "trainable": true, "dtype": "float32", "max_value": null, "negative_slope": 0.0, "threshold": 0.0}, "name": "re_lu_466", "inbound_nodes": [[["add_111", 0, 0, {}]]]}, {"class_name": "BatchNormalization", "config": {"name": "batch_normalization_355", "trainable": true, "dtype": "float32", "axis": [3], "momentum": 0.99, "epsilon": 0.001, "center": true, "scale": true, "beta_initializer": {"class_name": "Zeros", "config": {}}, "gamma_initializer": {"class_name": "Ones", "config": {}}, "moving_mean_initializer": {"class_name": "Zeros", "config": {}}, "moving_variance_initializer": {"class_name": "Ones", "config": {}}, "beta_regularizer": null, "gamma_regularizer": null, "beta_constraint": null, "gamma_constraint": null}, "name": "batch_normalization_355", "inbound_nodes": [[["re_lu_466", 0, 0, {}]]]}, {"class_name": "ReLU", "config": {"name": "re_lu_467", "trainable": true, "dtype": "float32", "max_value": null, "negative_slope": 0.0, "threshold": 0.0}, "name": "re_lu_467", "inbound_nodes": [[["batch_normalization_355", 0, 0, {}]]]}, {"class_name": "GlobalAveragePooling2D", "config": {"name": "global_average_pooling2d_6", "trainable": true, "dtype": "float32", "data_format": "channels_last"}, "name": "global_average_pooling2d_6", "inbound_nodes": [[["re_lu_467", 0, 0, {}]]]}, {"class_name": "Dense", "config": {"name": "dense_6", "trainable": true, "dtype": "float32", "units": 1000, "activation": "linear", "use_bias": true, "kernel_initializer": {"class_name": "VarianceScaling", "config": {"scale": 2.0, "mode": "fan_in", "distribution": "truncated_normal", "seed": null}}, "bias_initializer": {"class_name": "VarianceScaling", "config": {"scale": 2.0, "mode": "fan_in", "distribution": "truncated_normal", "seed": null}}, "kernel_regularizer": null, "bias_regularizer": null, "activity_regularizer": null, "kernel_constraint": null, "bias_constraint": null}, "name": "dense_6", "inbound_nodes": [[["global_average_pooling2d_6", 0, 0, {}]]]}, {"class_name": "BatchNormalization", "config": {"name": "batch_normalization_356", "trainable": true, "dtype": "float32", "axis": [1], "momentum": 0.99, "epsilon": 0.001, "center": true, "scale": true, "beta_initializer": {"class_name": "Zeros", "config": {}}, "gamma_initializer": {"class_name": "Ones", "config": {}}, "moving_mean_initializer": {"class_name": "Zeros", "config": {}}, "moving_variance_initializer": {"class_name": "Ones", "config": {}}, "beta_regularizer": null, "gamma_regularizer": null, "beta_constraint": null, "gamma_constraint": null}, "name": "batch_normalization_356", "inbound_nodes": [[["dense_6", 0, 0, {}]]]}, {"class_name": "ReLU", "config": {"name": "re_lu_468", "trainable": true, "dtype": "float32", "max_value": null, "negative_slope": 0.0, "threshold": 0.0}, "name": "re_lu_468", "inbound_nodes": [[["batch_normalization_356", 0, 0, {}]]]}, {"class_name": "Dense", "config": {"name": "hours_out", "trainable": true, "dtype": "float32", "units": 24, "activation": "softmax", "use_bias": true, "kernel_initializer": {"class_name": "VarianceScaling", "config": {"scale": 2.0, "mode": "fan_in", "distribution": "truncated_normal", "seed": null}}, "bias_initializer": {"class_name": "VarianceScaling", "config": {"scale": 2.0, "mode": "fan_in", "distribution": "truncated_normal", "seed": null}}, "kernel_regularizer": null, "bias_regularizer": null, "activity_regularizer": null, "kernel_constraint": null, "bias_constraint": null}, "name": "hours_out", "inbound_nodes": [[["re_lu_468", 0, 0, {}]]]}, {"class_name": "Dense", "config": {"name": "minutes_out", "trainable": true, "dtype": "float32", "units": 60, "activation": "softmax", "use_bias": true, "kernel_initializer": {"class_name": "VarianceScaling", "config": {"scale": 2.0, "mode": "fan_in", "distribution": "truncated_normal", "seed": null}}, "bias_initializer": {"class_name": "VarianceScaling", "config": {"scale": 2.0, "mode": "fan_in", "distribution": "truncated_normal", "seed": null}}, "kernel_regularizer": null, "bias_regularizer": null, "activity_regularizer": null, "kernel_constraint": null, "bias_constraint": null}, "name": "minutes_out", "inbound_nodes": [[["re_lu_468", 0, 0, {}]]]}, {"class_name": "Concatenate", "config": {"name": "time", "trainable": true, "dtype": "float32", "axis": -1}, "name": "time", "inbound_nodes": [[["hours_out", 0, 0, {}], ["minutes_out", 0, 0, {}]]]}], "input_layers": [["input_7", 0, 0]], "output_layers": [["time", 0, 0]]}, "keras_version": "2.2.4-tf", "backend": "tensorflow"}